…
  TYPE: ['gaussian_noise', 'shot_noise', 'impulse_noise', 'defocus_blur', 'glass_blur', 'motion_blur', 'zoom_blur', 'snow', 'frost', 'fog', 'brightness', 'contrast', 'elastic_transform', 'pixelate', 'jpeg_compression']
CUDNN:
  BENCHMARK: True
DATA_DIR: ./data
DESC: 
LOG_DEST: norm_Adam_0.001_bs128_em0.2.txt
LOG_TIME: 240606_200635
MODEL:
  ADAPTATION: norm
  ARCH: Standard
  EPISODIC: False
OPTIM:
  BETA: 0.9
  DAMPENING: 0.0
  LR: 0.001
  METHOD: Adam
  MOMENTUM: 0.9
  NESTEROV: True
  STEPS: 1
  WD: 0.0
RESET_CONSTANT_EM: 0.2
RNG_SEED: 1
SAVE_DIR: ./output2
TEST:
  BATCH_SIZE: 128
[24/06/06 20:06:36] [cifar100c_all_resemble.py:  118]: test-time adaptation: NORM
[24/06/06 20:06:36] [cifar100c_all_resemble.py:  488]: model for adaptation: DataParallel(
  (module): WideResNet(
    (conv1): Conv2d(3, 16, kernel_size=(3, 3), stride=(1, 1), padding=(1, 1), bias=False)
    (block1): NetworkBlock(
      (layer): Sequential(
        (0): BasicBlock(
          (bn1): BatchNorm2d(16, eps=1e-05, momentum=0.1, affine=True, track_running_stats=False)
          (relu1): ReLU(inplace=True)
          (conv1): Conv2d(16, 160, kernel_size=(3, 3), stride=(1, 1), padding=(1, 1), bias=False)
          (bn2): BatchNorm2d(160, eps=1e-05, momentum=0.1, affine=True, track_running_stats=False)
          (relu2): ReLU(inplace=True)
          (conv2): Conv2d(160, 160, kernel_size=(3, 3), stride=(1, 1), padding=(1, 1), bias=False)
          (convShortcut): Conv2d(16, 160, kernel_size=(1, 1), stride=(1, 1), bias=False)
        )
        (1): BasicBlock(
          (bn1): BatchNorm2d(160, eps=1e-05, momentum=0.1, affine=True, track_running_stats=False)
          (relu1): ReLU(inplace=True)
          (conv1): Conv2d(160, 160, kernel_size=(3, 3), stride=(1, 1), padding=(1, 1), bias=False)
          (bn2): BatchNorm2d(160, eps=1e-05, momentum=0.1, affine=True, track_running_stats=False)
          (relu2): ReLU(inplace=True)
          (conv2): Conv2d(160, 160, kernel_size=(3, 3), stride=(1, 1), padding=(1, 1), bias=False)
        )
        (2): BasicBlock(
          (bn1): BatchNorm2d(160, eps=1e-05, momentum=0.1, affine=True, track_running_stats=False)
          (relu1): ReLU(inplace=True)
          (conv1): Conv2d(160, 160, kernel_size=(3, 3), stride=(1, 1), padding=(1, 1), bias=False)
          (bn2): BatchNorm2d(160, eps=1e-05, momentum=0.1, affine=True, track_running_stats=False)
          (relu2): ReLU(inplace=True)
          (conv2): Conv2d(160, 160, kernel_size=(3, 3), stride=(1, 1), padding=(1, 1), bias=False)
        )
        (3): BasicBlock(
          (bn1): BatchNorm2d(160, eps=1e-05, momentum=0.1, affine=True, track_running_stats=False)
          (relu1): ReLU(inplace=True)
          (conv1): Conv2d(160, 160, kernel_size=(3, 3), stride=(1, 1), padding=(1, 1), bias=False)
          (bn2): BatchNorm2d(160, eps=1e-05, momentum=0.1, affine=True, track_running_stats=False)
          (relu2): ReLU(inplace=True)
          (conv2): Conv2d(160, 160, kernel_size=(3, 3), stride=(1, 1), padding=(1, 1), bias=False)
        )
      )
    )
    (block2): NetworkBlock(
      (layer): Sequential(
        (0): BasicBlock(
          (bn1): BatchNorm2d(160, eps=1e-05, momentum=0.1, affine=True, track_running_stats=False)
          (relu1): ReLU(inplace=True)
          (conv1): Conv2d(160, 320, kernel_size=(3, 3), stride=(2, 2), padding=(1, 1), bias=False)
          (bn2): BatchNorm2d(320, eps=1e-05, momentum=0.1, affine=True, track_running_stats=False)
          (relu2): ReLU(inplace=True)
          (conv2): Conv2d(320, 320, kernel_size=(3, 3), stride=(1, 1), padding=(1, 1), bias=False)
          (convShortcut): Conv2d(160, 320, kernel_size=(1, 1), stride=(2, 2), bias=False)
        )
        (1): BasicBlock(
          (bn1): BatchNorm2d(320, eps=1e-05, momentum=0.1, affine=True, track_running_stats=False)
          (relu1): ReLU(inplace=True)
          (conv1): Conv2d(320, 320, kernel_size=(3, 3), stride=(1, 1), padding=(1, 1), bias=False)
          (bn2): BatchNorm2d(320, eps=1e-05, momentum=0.1, affine=True, track_running_stats=False)
          (relu2): ReLU(inplace=True)
          (conv2): Conv2d(320, 320, kernel_size=(3, 3), stride=(1, 1), padding=(1, 1), bias=False)
        )
        (2): BasicBlock(
          (bn1): BatchNorm2d(320, eps=1e-05, momentum=0.1, affine=True, track_running_stats=False)
          (relu1): ReLU(inplace=True)
          (conv1): Conv2d(320, 320, kernel_size=(3, 3), stride=(1, 1), padding=(1, 1), bias=False)
          (bn2): BatchNorm2d(320, eps=1e-05, momentum=0.1, affine=True, track_running_stats=False)
          (relu2): ReLU(inplace=True)
          (conv2): Conv2d(320, 320, kernel_size=(3, 3), stride=(1, 1), padding=(1, 1), bias=False)
        )
        (3): BasicBlock(
          (bn1): BatchNorm2d(320, eps=1e-05, momentum=0.1, affine=True, track_running_stats=False)
          (relu1): ReLU(inplace=True)
          (conv1): Conv2d(320, 320, kernel_size=(3, 3), stride=(1, 1), padding=(1, 1), bias=False)
          (bn2): BatchNorm2d(320, eps=1e-05, momentum=0.1, affine=True, track_running_stats=False)
          (relu2): ReLU(inplace=True)
          (conv2): Conv2d(320, 320, kernel_size=(3, 3), stride=(1, 1), padding=(1, 1), bias=False)
        )
      )
    )
    (block3): NetworkBlock(
      (layer): Sequential(
        (0): BasicBlock(
          (bn1): BatchNorm2d(320, eps=1e-05, momentum=0.1, affine=True, track_running_stats=False)
          (relu1): ReLU(inplace=True)
          (conv1): Conv2d(320, 640, kernel_size=(3, 3), stride=(2, 2), padding=(1, 1), bias=False)
          (bn2): BatchNorm2d(640, eps=1e-05, momentum=0.1, affine=True, track_running_stats=False)
          (relu2): ReLU(inplace=True)
          (conv2): Conv2d(640, 640, kernel_size=(3, 3), stride=(1, 1), padding=(1, 1), bias=False)
          (convShortcut): Conv2d(320, 640, kernel_size=(1, 1), stride=(2, 2), bias=False)
        )
        (1): BasicBlock(
          (bn1): BatchNorm2d(640, eps=1e-05, momentum=0.1, affine=True, track_running_stats=False)
          (relu1): ReLU(inplace=True)
          (conv1): Conv2d(640, 640, kernel_size=(3, 3), stride=(1, 1), padding=(1, 1), bias=False)
          (bn2): BatchNorm2d(640, eps=1e-05, momentum=0.1, affine=True, track_running_stats=False)
          (relu2): ReLU(inplace=True)
          (conv2): Conv2d(640, 640, kernel_size=(3, 3), stride=(1, 1), padding=(1, 1), bias=False)
        )
        (2): BasicBlock(
          (bn1): BatchNorm2d(640, eps=1e-05, momentum=0.1, affine=True, track_running_stats=False)
          (relu1): ReLU(inplace=True)
          (conv1): Conv2d(640, 640, kernel_size=(3, 3), stride=(1, 1), padding=(1, 1), bias=False)
          (bn2): BatchNorm2d(640, eps=1e-05, momentum=0.1, affine=True, track_running_stats=False)
          (relu2): ReLU(inplace=True)
          (conv2): Conv2d(640, 640, kernel_size=(3, 3), stride=(1, 1), padding=(1, 1), bias=False)
        )
        (3): BasicBlock(
          (bn1): BatchNorm2d(640, eps=1e-05, momentum=0.1, affine=True, track_running_stats=False)
          (relu1): ReLU(inplace=True)
          (conv1): Conv2d(640, 640, kernel_size=(3, 3), stride=(1, 1), padding=(1, 1), bias=False)
          (bn2): BatchNorm2d(640, eps=1e-05, momentum=0.1, affine=True, track_running_stats=False)
          (relu2): ReLU(inplace=True)
          (conv2): Conv2d(640, 640, kernel_size=(3, 3), stride=(1, 1), padding=(1, 1), bias=False)
        )
      )
    )
    (bn1): BatchNorm2d(640, eps=1e-05, momentum=0.1, affine=True, track_running_stats=False)
    (relu): ReLU(inplace=True)
    (fc): Linear(in_features=640, out_features=100, bias=True)
  )
)
[24/06/06 20:06:36] [cifar100c_all_resemble.py:  490]: stats for adaptation: ['module.block1.layer.0.bn1.num_batches_tracked', 'module.block1.layer.0.bn2.num_batches_tracked', 'module.block1.layer.1.bn1.num_batches_tracked', 'module.block1.layer.1.bn2.num_batches_tracked', 'module.block1.layer.2.bn1.num_batches_tracked', 'module.block1.layer.2.bn
…
  TYPE: ['gaussian_noise', 'shot_noise', 'impulse_noise', 'defocus_blur', 'glass_blur', 'motion_blur', 'zoom_blur', 'snow', 'frost', 'fog', 'brightness', 'contrast', 'elastic_transform', 'pixelate', 'jpeg_compression']
CUDNN:
  BENCHMARK: True
DATA_DIR: ./data
DESC: 
LOG_DEST: norm_Adam_0.001_bs128_em0.2.txt
LOG_TIME: 240606_201641
MODEL:
  ADAPTATION: norm
  ARCH: Standard
  EPISODIC: False
OPTIM:
  BETA: 0.9
  DAMPENING: 0.0
  LR: 0.001
  METHOD: Adam
  MOMENTUM: 0.9
  NESTEROV: True
  STEPS: 1
  WD: 0.0
RESET_CONSTANT_EM: 0.2
RNG_SEED: 1
SAVE_DIR: ./output2
TEST:
  BATCH_SIZE: 128
[24/06/06 20:16:41] [cifar100c_all_resemble.py:  119]: test-time adaptation: NORM
[24/06/06 20:16:41] [cifar100c_all_resemble.py:  489]: model for adaptation: DataParallel(
  (module): WideResNet(
    (conv1): Conv2d(3, 16, kernel_size=(3, 3), stride=(1, 1), padding=(1, 1), bias=False)
    (block1): NetworkBlock(
      (layer): Sequential(
        (0): BasicBlock(
          (bn1): BatchNorm2d(16, eps=1e-05, momentum=0.1, affine=True, track_running_stats=False)
          (relu1): ReLU(inplace=True)
          (conv1): Conv2d(16, 48, kernel_size=(3, 3), stride=(1, 1), padding=(1, 1), bias=False)
          (bn2): BatchNorm2d(48, eps=1e-05, momentum=0.1, affine=True, track_running_stats=False)
          (relu2): ReLU(inplace=True)
          (conv2): Conv2d(48, 48, kernel_size=(3, 3), stride=(1, 1), padding=(1, 1), bias=False)
          (convShortcut): Conv2d(16, 48, kernel_size=(1, 1), stride=(1, 1), bias=False)
        )
        (1): BasicBlock(
          (bn1): BatchNorm2d(48, eps=1e-05, momentum=0.1, affine=True, track_running_stats=False)
          (relu1): ReLU(inplace=True)
          (conv1): Conv2d(48, 48, kernel_size=(3, 3), stride=(1, 1), padding=(1, 1), bias=False)
          (bn2): BatchNorm2d(48, eps=1e-05, momentum=0.1, affine=True, track_running_stats=False)
          (relu2): ReLU(inplace=True)
          (conv2): Conv2d(48, 48, kernel_size=(3, 3), stride=(1, 1), padding=(1, 1), bias=False)
        )
        (2): BasicBlock(
          (bn1): BatchNorm2d(48, eps=1e-05, momentum=0.1, affine=True, track_running_stats=False)
          (relu1): ReLU(inplace=True)
          (conv1): Conv2d(48, 48, kernel_size=(3, 3), stride=(1, 1), padding=(1, 1), bias=False)
          (bn2): BatchNorm2d(48, eps=1e-05, momentum=0.1, affine=True, track_running_stats=False)
          (relu2): ReLU(inplace=True)
          (conv2): Conv2d(48, 48, kernel_size=(3, 3), stride=(1, 1), padding=(1, 1), bias=False)
        )
        (3): BasicBlock(
          (bn1): BatchNorm2d(48, eps=1e-05, momentum=0.1, affine=True, track_running_stats=False)
          (relu1): ReLU(inplace=True)
          (conv1): Conv2d(48, 48, kernel_size=(3, 3), stride=(1, 1), padding=(1, 1), bias=False)
          (bn2): BatchNorm2d(48, eps=1e-05, momentum=0.1, affine=True, track_running_stats=False)
          (relu2): ReLU(inplace=True)
          (conv2): Conv2d(48, 48, kernel_size=(3, 3), stride=(1, 1), padding=(1, 1), bias=False)
        )
      )
    )
    (block2): NetworkBlock(
      (layer): Sequential(
        (0): BasicBlock(
          (bn1): BatchNorm2d(48, eps=1e-05, momentum=0.1, affine=True, track_running_stats=False)
          (relu1): ReLU(inplace=True)
          (conv1): Conv2d(48, 96, kernel_size=(3, 3), stride=(2, 2), padding=(1, 1), bias=False)
          (bn2): BatchNorm2d(96, eps=1e-05, momentum=0.1, affine=True, track_running_stats=False)
          (relu2): ReLU(inplace=True)
          (conv2): Conv2d(96, 96, kernel_size=(3, 3), stride=(1, 1), padding=(1, 1), bias=False)
          (convShortcut): Conv2d(48, 96, kernel_size=(1, 1), stride=(2, 2), bias=False)
        )
        (1): BasicBlock(
          (bn1): BatchNorm2d(96, eps=1e-05, momentum=0.1, affine=True, track_running_stats=False)
          (relu1): ReLU(inplace=True)
          (conv1): Conv2d(96, 96, kernel_size=(3, 3), stride=(1, 1), padding=(1, 1), bias=False)
          (bn2): BatchNorm2d(96, eps=1e-05, momentum=0.1, affine=True, track_running_stats=False)
          (relu2): ReLU(inplace=True)
          (conv2): Conv2d(96, 96, kernel_size=(3, 3), stride=(1, 1), padding=(1, 1), bias=False)
        )
        (2): BasicBlock(
          (bn1): BatchNorm2d(96, eps=1e-05, momentum=0.1, affine=True, track_running_stats=False)
          (relu1): ReLU(inplace=True)
          (conv1): Conv2d(96, 96, kernel_size=(3, 3), stride=(1, 1), padding=(1, 1), bias=False)
          (bn2): BatchNorm2d(96, eps=1e-05, momentum=0.1, affine=True, track_running_stats=False)
          (relu2): ReLU(inplace=True)
          (conv2): Conv2d(96, 96, kernel_size=(3, 3), stride=(1, 1), padding=(1, 1), bias=False)
        )
        (3): BasicBlock(
          (bn1): BatchNorm2d(96, eps=1e-05, momentum=0.1, affine=True, track_running_stats=False)
          (relu1): ReLU(inplace=True)
          (conv1): Conv2d(96, 96, kernel_size=(3, 3), stride=(1, 1), padding=(1, 1), bias=False)
          (bn2): BatchNorm2d(96, eps=1e-05, momentum=0.1, affine=True, track_running_stats=False)
          (relu2): ReLU(inplace=True)
          (conv2): Conv2d(96, 96, kernel_size=(3, 3), stride=(1, 1), padding=(1, 1), bias=False)
        )
      )
    )
    (block3): NetworkBlock(
      (layer): Sequential(
        (0): BasicBlock(
          (bn1): BatchNorm2d(96, eps=1e-05, momentum=0.1, affine=True, track_running_stats=False)
          (relu1): ReLU(inplace=True)
          (conv1): Conv2d(96, 192, kernel_size=(3, 3), stride=(2, 2), padding=(1, 1), bias=False)
          (bn2): BatchNorm2d(192, eps=1e-05, momentum=0.1, affine=True, track_running_stats=False)
          (relu2): ReLU(inplace=True)
          (conv2): Conv2d(192, 192, kernel_size=(3, 3), stride=(1, 1), padding=(1, 1), bias=False)
          (convShortcut): Conv2d(96, 192, kernel_size=(1, 1), stride=(2, 2), bias=False)
        )
        (1): BasicBlock(
          (bn1): BatchNorm2d(192, eps=1e-05, momentum=0.1, affine=True, track_running_stats=False)
          (relu1): ReLU(inplace=True)
          (conv1): Conv2d(192, 192, kernel_size=(3, 3), stride=(1, 1), padding=(1, 1), bias=False)
          (bn2): BatchNorm2d(192, eps=1e-05, momentum=0.1, affine=True, track_running_stats=False)
          (relu2): ReLU(inplace=True)
          (conv2): Conv2d(192, 192, kernel_size=(3, 3), stride=(1, 1), padding=(1, 1), bias=False)
        )
        (2): BasicBlock(
          (bn1): BatchNorm2d(192, eps=1e-05, momentum=0.1, affine=True, track_running_stats=False)
          (relu1): ReLU(inplace=True)
          (conv1): Conv2d(192, 192, kernel_size=(3, 3), stride=(1, 1), padding=(1, 1), bias=False)
          (bn2): BatchNorm2d(192, eps=1e-05, momentum=0.1, affine=True, track_running_stats=False)
          (relu2): ReLU(inplace=True)
          (conv2): Conv2d(192, 192, kernel_size=(3, 3), stride=(1, 1), padding=(1, 1), bias=False)
        )
        (3): BasicBlock(
          (bn1): BatchNorm2d(192, eps=1e-05, momentum=0.1, affine=True, track_running_stats=False)
          (relu1): ReLU(inplace=True)
          (conv1): Conv2d(192, 192, kernel_size=(3, 3), stride=(1, 1), padding=(1, 1), bias=False)
          (bn2): BatchNorm2d(192, eps=1e-05, momentum=0.1, affine=True, track_running_stats=False)
          (relu2): ReLU(inplace=True)
          (conv2): Conv2d(192, 192, kernel_size=(3, 3), stride=(1, 1), padding=(1, 1), bias=False)
        )
      )
    )
    (bn1): BatchNorm2d(192, eps=1e-05, momentum=0.1, affine=True, track_running_stats=False)
    (relu): ReLU(inplace=True)
    (fc): Linear(in_features=192, out_features=100, bias=True)
  )
)
[24/06/06 20:16:41] [cifar100c_all_resemble.py:  491]: stats for adaptation: ['module.block1.layer.0.bn1.num_batches_tracked', 'module.block1.layer.0.bn2.num_batches_tracked', 'module.block1.layer.1.bn1.num_batches_tracked', 'module.block1.layer.1.bn2.num_batches_tracked', 'module.block1.layer.2.bn1.num_batches_tracked', 'module.block1.layer.2.bn
…
  TYPE: ['gaussian_noise', 'shot_noise', 'impulse_noise', 'defocus_blur', 'glass_blur', 'motion_blur', 'zoom_blur', 'snow', 'frost', 'fog', 'brightness', 'contrast', 'elastic_transform', 'pixelate', 'jpeg_compression']
CUDNN:
  BENCHMARK: True
DATA_DIR: ./data
DESC: 
LOG_DEST: norm_Adam_0.001_bs128_em0.2.txt
LOG_TIME: 240607_093726
MODEL:
  ADAPTATION: norm
  ARCH: Standard
  EPISODIC: False
OPTIM:
  BETA: 0.9
  DAMPENING: 0.0
  LR: 0.001
  METHOD: Adam
  MOMENTUM: 0.9
  NESTEROV: True
  STEPS: 1
  WD: 0.0
RESET_CONSTANT_EM: 0.2
RNG_SEED: 1
SAVE_DIR: ./output2
TEST:
  BATCH_SIZE: 128
[24/06/07 09:37:27] [cifar100c_all_resemble.py:  127]: test-time adaptation: NORM
[24/06/07 09:37:27] [cifar100c_all_resemble.py:  497]: model for adaptation: DataParallel(
  (module): WideResNet(
    (conv1): Conv2d(3, 16, kernel_size=(3, 3), stride=(1, 1), padding=(1, 1), bias=False)
    (block1): NetworkBlock(
      (layer): Sequential(
        (0): BasicBlock(
          (bn1): BatchNorm2d(16, eps=1e-05, momentum=0.1, affine=True, track_running_stats=False)
          (relu1): ReLU(inplace=True)
          (conv1): Conv2d(16, 64, kernel_size=(3, 3), stride=(1, 1), padding=(1, 1), bias=False)
          (bn2): BatchNorm2d(64, eps=1e-05, momentum=0.1, affine=True, track_running_stats=False)
          (relu2): ReLU(inplace=True)
          (conv2): Conv2d(64, 64, kernel_size=(3, 3), stride=(1, 1), padding=(1, 1), bias=False)
          (convShortcut): Conv2d(16, 64, kernel_size=(1, 1), stride=(1, 1), bias=False)
        )
        (1): BasicBlock(
          (bn1): BatchNorm2d(64, eps=1e-05, momentum=0.1, affine=True, track_running_stats=False)
          (relu1): ReLU(inplace=True)
          (conv1): Conv2d(64, 64, kernel_size=(3, 3), stride=(1, 1), padding=(1, 1), bias=False)
          (bn2): BatchNorm2d(64, eps=1e-05, momentum=0.1, affine=True, track_running_stats=False)
          (relu2): ReLU(inplace=True)
          (conv2): Conv2d(64, 64, kernel_size=(3, 3), stride=(1, 1), padding=(1, 1), bias=False)
        )
        (2): BasicBlock(
          (bn1): BatchNorm2d(64, eps=1e-05, momentum=0.1, affine=True, track_running_stats=False)
          (relu1): ReLU(inplace=True)
          (conv1): Conv2d(64, 64, kernel_size=(3, 3), stride=(1, 1), padding=(1, 1), bias=False)
          (bn2): BatchNorm2d(64, eps=1e-05, momentum=0.1, affine=True, track_running_stats=False)
          (relu2): ReLU(inplace=True)
          (conv2): Conv2d(64, 64, kernel_size=(3, 3), stride=(1, 1), padding=(1, 1), bias=False)
        )
        (3): BasicBlock(
          (bn1): BatchNorm2d(64, eps=1e-05, momentum=0.1, affine=True, track_running_stats=False)
          (relu1): ReLU(inplace=True)
          (conv1): Conv2d(64, 64, kernel_size=(3, 3), stride=(1, 1), padding=(1, 1), bias=False)
          (bn2): BatchNorm2d(64, eps=1e-05, momentum=0.1, affine=True, track_running_stats=False)
          (relu2): ReLU(inplace=True)
          (conv2): Conv2d(64, 64, kernel_size=(3, 3), stride=(1, 1), padding=(1, 1), bias=False)
        )
      )
    )
    (block2): NetworkBlock(
      (layer): Sequential(
        (0): BasicBlock(
          (bn1): BatchNorm2d(64, eps=1e-05, momentum=0.1, affine=True, track_running_stats=False)
          (relu1): ReLU(inplace=True)
          (conv1): Conv2d(64, 128, kernel_size=(3, 3), stride=(2, 2), padding=(1, 1), bias=False)
          (bn2): BatchNorm2d(128, eps=1e-05, momentum=0.1, affine=True, track_running_stats=False)
          (relu2): ReLU(inplace=True)
          (conv2): Conv2d(128, 128, kernel_size=(3, 3), stride=(1, 1), padding=(1, 1), bias=False)
          (convShortcut): Conv2d(64, 128, kernel_size=(1, 1), stride=(2, 2), bias=False)
        )
        (1): BasicBlock(
          (bn1): BatchNorm2d(128, eps=1e-05, momentum=0.1, affine=True, track_running_stats=False)
          (relu1): ReLU(inplace=True)
          (conv1): Conv2d(128, 128, kernel_size=(3, 3), stride=(1, 1), padding=(1, 1), bias=False)
          (bn2): BatchNorm2d(128, eps=1e-05, momentum=0.1, affine=True, track_running_stats=False)
          (relu2): ReLU(inplace=True)
          (conv2): Conv2d(128, 128, kernel_size=(3, 3), stride=(1, 1), padding=(1, 1), bias=False)
        )
        (2): BasicBlock(
          (bn1): BatchNorm2d(128, eps=1e-05, momentum=0.1, affine=True, track_running_stats=False)
          (relu1): ReLU(inplace=True)
          (conv1): Conv2d(128, 128, kernel_size=(3, 3), stride=(1, 1), padding=(1, 1), bias=False)
          (bn2): BatchNorm2d(128, eps=1e-05, momentum=0.1, affine=True, track_running_stats=False)
          (relu2): ReLU(inplace=True)
          (conv2): Conv2d(128, 128, kernel_size=(3, 3), stride=(1, 1), padding=(1, 1), bias=False)
        )
        (3): BasicBlock(
          (bn1): BatchNorm2d(128, eps=1e-05, momentum=0.1, affine=True, track_running_stats=False)
          (relu1): ReLU(inplace=True)
          (conv1): Conv2d(128, 128, kernel_size=(3, 3), stride=(1, 1), padding=(1, 1), bias=False)
          (bn2): BatchNorm2d(128, eps=1e-05, momentum=0.1, affine=True, track_running_stats=False)
          (relu2): ReLU(inplace=True)
          (conv2): Conv2d(128, 128, kernel_size=(3, 3), stride=(1, 1), padding=(1, 1), bias=False)
        )
      )
    )
    (block3): NetworkBlock(
      (layer): Sequential(
        (0): BasicBlock(
          (bn1): BatchNorm2d(128, eps=1e-05, momentum=0.1, affine=True, track_running_stats=False)
          (relu1): ReLU(inplace=True)
          (conv1): Conv2d(128, 256, kernel_size=(3, 3), stride=(2, 2), padding=(1, 1), bias=False)
          (bn2): BatchNorm2d(256, eps=1e-05, momentum=0.1, affine=True, track_running_stats=False)
          (relu2): ReLU(inplace=True)
          (conv2): Conv2d(256, 256, kernel_size=(3, 3), stride=(1, 1), padding=(1, 1), bias=False)
          (convShortcut): Conv2d(128, 256, kernel_size=(1, 1), stride=(2, 2), bias=False)
        )
        (1): BasicBlock(
          (bn1): BatchNorm2d(256, eps=1e-05, momentum=0.1, affine=True, track_running_stats=False)
          (relu1): ReLU(inplace=True)
          (conv1): Conv2d(256, 256, kernel_size=(3, 3), stride=(1, 1), padding=(1, 1), bias=False)
          (bn2): BatchNorm2d(256, eps=1e-05, momentum=0.1, affine=True, track_running_stats=False)
          (relu2): ReLU(inplace=True)
          (conv2): Conv2d(256, 256, kernel_size=(3, 3), stride=(1, 1), padding=(1, 1), bias=False)
        )
        (2): BasicBlock(
          (bn1): BatchNorm2d(256, eps=1e-05, momentum=0.1, affine=True, track_running_stats=False)
          (relu1): ReLU(inplace=True)
          (conv1): Conv2d(256, 256, kernel_size=(3, 3), stride=(1, 1), padding=(1, 1), bias=False)
          (bn2): BatchNorm2d(256, eps=1e-05, momentum=0.1, affine=True, track_running_stats=False)
          (relu2): ReLU(inplace=True)
          (conv2): Conv2d(256, 256, kernel_size=(3, 3), stride=(1, 1), padding=(1, 1), bias=False)
        )
        (3): BasicBlock(
          (bn1): BatchNorm2d(256, eps=1e-05, momentum=0.1, affine=True, track_running_stats=False)
          (relu1): ReLU(inplace=True)
          (conv1): Conv2d(256, 256, kernel_size=(3, 3), stride=(1, 1), padding=(1, 1), bias=False)
          (bn2): BatchNorm2d(256, eps=1e-05, momentum=0.1, affine=True, track_running_stats=False)
          (relu2): ReLU(inplace=True)
          (conv2): Conv2d(256, 256, kernel_size=(3, 3), stride=(1, 1), padding=(1, 1), bias=False)
        )
      )
    )
    (bn1): BatchNorm2d(256, eps=1e-05, momentum=0.1, affine=True, track_running_stats=False)
    (relu): ReLU(inplace=True)
    (fc): Linear(in_features=256, out_features=100, bias=True)
  )
)
[24/06/07 09:37:27] [cifar100c_all_resemble.py:  499]: stats for adaptation: ['module.block1.layer.0.bn1.num_batches_tracked', 'module.block1.layer.0.bn2.num_batches_tracked', 'module.block1.layer.1.bn1.num_batches_tracked', 'module.block1.layer.1.bn2.num_batches_tracked', 'module.block1.layer.2.bn1.num_batches_tracked', 'module.block1.layer.2.bn
…
  TYPE: ['gaussian_noise', 'shot_noise', 'impulse_noise', 'defocus_blur', 'glass_blur', 'motion_blur', 'zoom_blur', 'snow', 'frost', 'fog', 'brightness', 'contrast', 'elastic_transform', 'pixelate', 'jpeg_compression']
CUDNN:
  BENCHMARK: True
DATA_DIR: ./data
DESC: 
LOG_DEST: norm_Adam_0.001_bs128_em0.2.txt
LOG_TIME: 240611_091936
MODEL:
  ADAPTATION: norm
  ARCH: Standard
  EPISODIC: False
OPTIM:
  BETA: 0.9
  DAMPENING: 0.0
  LR: 0.001
  METHOD: Adam
  MOMENTUM: 0.9
  NESTEROV: True
  STEPS: 1
  WD: 0.0
RESET_CONSTANT_EM: 0.2
RNG_SEED: 1
SAVE_DIR: ./output2
TEST:
  BATCH_SIZE: 128
[24/06/11 09:19:36] [cifar100c_all_resemble.py:  129]: test-time adaptation: NORM
[24/06/11 09:19:36] [cifar100c_all_resemble.py:  502]: model for adaptation: DataParallel(
  (module): WideResNet(
    (conv1): Conv2d(3, 16, kernel_size=(3, 3), stride=(1, 1), padding=(1, 1), bias=False)
    (block1): NetworkBlock(
      (layer): Sequential(
        (0): BasicBlock(
          (bn1): BatchNorm2d(16, eps=1e-05, momentum=0.1, affine=True, track_running_stats=False)
          (relu1): ReLU(inplace=True)
          (conv1): Conv2d(16, 32, kernel_size=(3, 3), stride=(1, 1), padding=(1, 1), bias=False)
          (bn2): BatchNorm2d(32, eps=1e-05, momentum=0.1, affine=True, track_running_stats=False)
          (relu2): ReLU(inplace=True)
          (conv2): Conv2d(32, 32, kernel_size=(3, 3), stride=(1, 1), padding=(1, 1), bias=False)
          (convShortcut): Conv2d(16, 32, kernel_size=(1, 1), stride=(1, 1), bias=False)
          (output): InternalClassifier(
            (layers): Sequential(
              (0): MaxPool2d(kernel_size=8, stride=8, padding=0, dilation=1, ceil_mode=False)
              (1): AvgPool2d(kernel_size=8, stride=8, padding=0)
              (2): Linear(in_features=512, out_features=100, bias=True)
            )
          )
        )
        (1): BasicBlock(
          (bn1): BatchNorm2d(32, eps=1e-05, momentum=0.1, affine=True, track_running_stats=False)
          (relu1): ReLU(inplace=True)
          (conv1): Conv2d(32, 32, kernel_size=(3, 3), stride=(1, 1), padding=(1, 1), bias=False)
          (bn2): BatchNorm2d(32, eps=1e-05, momentum=0.1, affine=True, track_running_stats=False)
          (relu2): ReLU(inplace=True)
          (conv2): Conv2d(32, 32, kernel_size=(3, 3), stride=(1, 1), padding=(1, 1), bias=False)
        )
        (2): BasicBlock(
          (bn1): BatchNorm2d(32, eps=1e-05, momentum=0.1, affine=True, track_running_stats=False)
          (relu1): ReLU(inplace=True)
          (conv1): Conv2d(32, 32, kernel_size=(3, 3), stride=(1, 1), padding=(1, 1), bias=False)
          (bn2): BatchNorm2d(32, eps=1e-05, momentum=0.1, affine=True, track_running_stats=False)
          (relu2): ReLU(inplace=True)
          (conv2): Conv2d(32, 32, kernel_size=(3, 3), stride=(1, 1), padding=(1, 1), bias=False)
        )
        (3): BasicBlock(
          (bn1): BatchNorm2d(32, eps=1e-05, momentum=0.1, affine=True, track_running_stats=False)
          (relu1): ReLU(inplace=True)
          (conv1): Conv2d(32, 32, kernel_size=(3, 3), stride=(1, 1), padding=(1, 1), bias=False)
          (bn2): BatchNorm2d(32, eps=1e-05, momentum=0.1, affine=True, track_running_stats=False)
          (relu2): ReLU(inplace=True)
          (conv2): Conv2d(32, 32, kernel_size=(3, 3), stride=(1, 1), padding=(1, 1), bias=False)
        )
      )
    )
    (block2): NetworkBlock(
      (layer): Sequential(
        (0): BasicBlock(
          (bn1): BatchNorm2d(32, eps=1e-05, momentum=0.1, affine=True, track_running_stats=False)
          (relu1): ReLU(inplace=True)
          (conv1): Conv2d(32, 64, kernel_size=(3, 3), stride=(2, 2), padding=(1, 1), bias=False)
          (bn2): BatchNorm2d(64, eps=1e-05, momentum=0.1, affine=True, track_running_stats=False)
          (relu2): ReLU(inplace=True)
          (conv2): Conv2d(64, 64, kernel_size=(3, 3), stride=(1, 1), padding=(1, 1), bias=False)
          (convShortcut): Conv2d(32, 64, kernel_size=(1, 1), stride=(2, 2), bias=False)
          (output): InternalClassifier(
            (layers): Sequential(
              (0): MaxPool2d(kernel_size=4, stride=4, padding=0, dilation=1, ceil_mode=False)
              (1): AvgPool2d(kernel_size=4, stride=4, padding=0)
              (2): Linear(in_features=1024, out_features=100, bias=True)
            )
          )
        )
        (1): BasicBlock(
          (bn1): BatchNorm2d(64, eps=1e-05, momentum=0.1, affine=True, track_running_stats=False)
          (relu1): ReLU(inplace=True)
          (conv1): Conv2d(64, 64, kernel_size=(3, 3), stride=(1, 1), padding=(1, 1), bias=False)
          (bn2): BatchNorm2d(64, eps=1e-05, momentum=0.1, affine=True, track_running_stats=False)
          (relu2): ReLU(inplace=True)
          (conv2): Conv2d(64, 64, kernel_size=(3, 3), stride=(1, 1), padding=(1, 1), bias=False)
        )
        (2): BasicBlock(
          (bn1): BatchNorm2d(64, eps=1e-05, momentum=0.1, affine=True, track_running_stats=False)
          (relu1): ReLU(inplace=True)
          (conv1): Conv2d(64, 64, kernel_size=(3, 3), stride=(1, 1), padding=(1, 1), bias=False)
          (bn2): BatchNorm2d(64, eps=1e-05, momentum=0.1, affine=True, track_running_stats=False)
          (relu2): ReLU(inplace=True)
          (conv2): Conv2d(64, 64, kernel_size=(3, 3), stride=(1, 1), padding=(1, 1), bias=False)
        )
        (3): BasicBlock(
          (bn1): BatchNorm2d(64, eps=1e-05, momentum=0.1, affine=True, track_running_stats=False)
          (relu1): ReLU(inplace=True)
          (conv1): Conv2d(64, 64, kernel_size=(3, 3), stride=(1, 1), padding=(1, 1), bias=False)
          (bn2): BatchNorm2d(64, eps=1e-05, momentum=0.1, affine=True, track_running_stats=False)
          (relu2): ReLU(inplace=True)
          (conv2): Conv2d(64, 64, kernel_size=(3, 3), stride=(1, 1), padding=(1, 1), bias=False)
        )
      )
    )
    (block3): NetworkBlock(
      (layer): Sequential(
        (0): BasicBlock(
          (bn1): BatchNorm2d(64, eps=1e-05, momentum=0.1, affine=True, track_running_stats=False)
          (relu1): ReLU(inplace=True)
          (conv1): Conv2d(64, 128, kernel_size=(3, 3), stride=(2, 2), padding=(1, 1), bias=False)
          (bn2): BatchNorm2d(128, eps=1e-05, momentum=0.1, affine=True, track_running_stats=False)
          (relu2): ReLU(inplace=True)
          (conv2): Conv2d(128, 128, kernel_size=(3, 3), stride=(1, 1), padding=(1, 1), bias=False)
          (convShortcut): Conv2d(64, 128, kernel_size=(1, 1), stride=(2, 2), bias=False)
          (output): InternalClassifier(
            (layers): Sequential(
              (0): MaxPool2d(kernel_size=2, stride=2, padding=0, dilation=1, ceil_mode=False)
              (1): AvgPool2d(kernel_size=2, stride=2, padding=0)
              (2): Linear(in_features=2048, out_features=100, bias=True)
            )
          )
        )
        (1): BasicBlock(
          (bn1): BatchNorm2d(128, eps=1e-05, momentum=0.1, affine=True, track_running_stats=False)
          (relu1): ReLU(inplace=True)
          (conv1): Conv2d(128, 128, kernel_size=(3, 3), stride=(1, 1), padding=(1, 1), bias=False)
          (bn2): BatchNorm2d(128, eps=1e-05, momentum=0.1, affine=True, track_running_stats=False)
          (relu2): ReLU(inplace=True)
          (conv2): Conv2d(128, 128, kernel_size=(3, 3), stride=(1, 1), padding=(1, 1), bias=False)
        )
        (2): BasicBlock(
          (bn1): BatchNorm2d(128, eps=1e-05, momentum=0.1, affine=True, track_running_stats=False)
          (relu1): ReLU(inplace=True)
          (conv1): Conv2d(128, 128, kernel_size=(3, 3), stride=(1, 1), padding=(1, 1), bias=False)
          (bn2): BatchNorm2d(128, eps=1e-05, momentum=0.1, affine=True, track_running_stats=False)
          (relu2): ReLU(inplace=True)
          (conv2): Conv2d(128, 128, kernel_size=(3, 3), stride=(1, 1), padding=(1, 1), bias=False)
        )
        (3): BasicBlock(
          (bn1): BatchNorm2d(128, eps=1e-05, momentum=0.1, affine=True, track_running_stats=False)
          (relu1): ReLU(inplace=True)
          (conv1): Conv2d(128, 128, kernel_size=(3, 3), stride=(1, 1), padding=(1, 1), bias=False)
          (bn2): BatchNorm2d(128, eps=1e-05, momentum=0.1, affine=True, track_running_stats=False)
          (relu2): ReLU(inplace=True)
          (conv2): Conv2d(128, 128, kernel_size=(3, 3), stride=(1, 1), padding=(1, 1), bias=False)
        )
      )
    )
    (bn1): BatchNorm2d(128, eps=1e-05, momentum=0.1, affine=True, track_running_stats=False)
    (relu): ReLU(inplace=True)
    (fc): Linear(in_features=128, out_features=100, bias=True)
  )
)
[24/06/11 09:19:36] [cifar100c_all_resemble.py:  504]: stats for adaptation: ['module.block1.layer.0.bn1.num_batches_tracked', 'module.block1.layer.0.bn2.num_batches_tracked', 'module.block1.layer.1.bn1.num_batches_tracked', 'module.block1.layer.1.bn2.num_batches_tracked', 'module.block1.layer.2.bn1.num_batches_tracked', 'module.block1.layer.2.bn
…
  TYPE: ['gaussian_noise', 'shot_noise', 'impulse_noise', 'defocus_blur', 'glass_blur', 'motion_blur', 'zoom_blur', 'snow', 'frost', 'fog', 'brightness', 'contrast', 'elastic_transform', 'pixelate', 'jpeg_compression']
CUDNN:
  BENCHMARK: True
DATA_DIR: ./data
DESC: 
LOG_DEST: norm_Adam_0.001_bs128_em0.2.txt
LOG_TIME: 240611_093914
MODEL:
  ADAPTATION: norm
  ARCH: Standard
  EPISODIC: False
OPTIM:
  BETA: 0.9
  DAMPENING: 0.0
  LR: 0.001
  METHOD: Adam
  MOMENTUM: 0.9
  NESTEROV: True
  STEPS: 1
  WD: 0.0
RESET_CONSTANT_EM: 0.2
RNG_SEED: 1
SAVE_DIR: ./output2
TEST:
  BATCH_SIZE: 128
[24/06/11 09:39:14] [cifar100c_all_resemble.py:  129]: test-time adaptation: NORM
[24/06/11 09:39:14] [cifar100c_all_resemble.py:  502]: model for adaptation: DataParallel(
  (module): WideResNet(
    (conv1): Conv2d(3, 16, kernel_size=(3, 3), stride=(1, 1), padding=(1, 1), bias=False)
    (block1): NetworkBlock(
      (layer): Sequential(
        (0): BasicBlock(
          (bn1): BatchNorm2d(16, eps=1e-05, momentum=0.1, affine=True, track_running_stats=False)
          (relu1): ReLU(inplace=True)
          (conv1): Conv2d(16, 80, kernel_size=(3, 3), stride=(1, 1), padding=(1, 1), bias=False)
          (bn2): BatchNorm2d(80, eps=1e-05, momentum=0.1, affine=True, track_running_stats=False)
          (relu2): ReLU(inplace=True)
          (conv2): Conv2d(80, 80, kernel_size=(3, 3), stride=(1, 1), padding=(1, 1), bias=False)
          (convShortcut): Conv2d(16, 80, kernel_size=(1, 1), stride=(1, 1), bias=False)
          (output): InternalClassifier(
            (layers): Sequential(
              (0): MaxPool2d(kernel_size=8, stride=8, padding=0, dilation=1, ceil_mode=False)
              (1): AvgPool2d(kernel_size=8, stride=8, padding=0)
              (2): Linear(in_features=1280, out_features=100, bias=True)
            )
          )
        )
        (1): BasicBlock(
          (bn1): BatchNorm2d(80, eps=1e-05, momentum=0.1, affine=True, track_running_stats=False)
          (relu1): ReLU(inplace=True)
          (conv1): Conv2d(80, 80, kernel_size=(3, 3), stride=(1, 1), padding=(1, 1), bias=False)
          (bn2): BatchNorm2d(80, eps=1e-05, momentum=0.1, affine=True, track_running_stats=False)
          (relu2): ReLU(inplace=True)
          (conv2): Conv2d(80, 80, kernel_size=(3, 3), stride=(1, 1), padding=(1, 1), bias=False)
        )
        (2): BasicBlock(
          (bn1): BatchNorm2d(80, eps=1e-05, momentum=0.1, affine=True, track_running_stats=False)
          (relu1): ReLU(inplace=True)
          (conv1): Conv2d(80, 80, kernel_size=(3, 3), stride=(1, 1), padding=(1, 1), bias=False)
          (bn2): BatchNorm2d(80, eps=1e-05, momentum=0.1, affine=True, track_running_stats=False)
          (relu2): ReLU(inplace=True)
          (conv2): Conv2d(80, 80, kernel_size=(3, 3), stride=(1, 1), padding=(1, 1), bias=False)
        )
        (3): BasicBlock(
          (bn1): BatchNorm2d(80, eps=1e-05, momentum=0.1, affine=True, track_running_stats=False)
          (relu1): ReLU(inplace=True)
          (conv1): Conv2d(80, 80, kernel_size=(3, 3), stride=(1, 1), padding=(1, 1), bias=False)
          (bn2): BatchNorm2d(80, eps=1e-05, momentum=0.1, affine=True, track_running_stats=False)
          (relu2): ReLU(inplace=True)
          (conv2): Conv2d(80, 80, kernel_size=(3, 3), stride=(1, 1), padding=(1, 1), bias=False)
        )
      )
    )
    (block2): NetworkBlock(
      (layer): Sequential(
        (0): BasicBlock(
          (bn1): BatchNorm2d(80, eps=1e-05, momentum=0.1, affine=True, track_running_stats=False)
          (relu1): ReLU(inplace=True)
          (conv1): Conv2d(80, 160, kernel_size=(3, 3), stride=(2, 2), padding=(1, 1), bias=False)
          (bn2): BatchNorm2d(160, eps=1e-05, momentum=0.1, affine=True, track_running_stats=False)
          (relu2): ReLU(inplace=True)
          (conv2): Conv2d(160, 160, kernel_size=(3, 3), stride=(1, 1), padding=(1, 1), bias=False)
          (convShortcut): Conv2d(80, 160, kernel_size=(1, 1), stride=(2, 2), bias=False)
          (output): InternalClassifier(
            (layers): Sequential(
              (0): MaxPool2d(kernel_size=4, stride=4, padding=0, dilation=1, ceil_mode=False)
              (1): AvgPool2d(kernel_size=4, stride=4, padding=0)
              (2): Linear(in_features=2560, out_features=100, bias=True)
            )
          )
        )
        (1): BasicBlock(
          (bn1): BatchNorm2d(160, eps=1e-05, momentum=0.1, affine=True, track_running_stats=False)
          (relu1): ReLU(inplace=True)
          (conv1): Conv2d(160, 160, kernel_size=(3, 3), stride=(1, 1), padding=(1, 1), bias=False)
          (bn2): BatchNorm2d(160, eps=1e-05, momentum=0.1, affine=True, track_running_stats=False)
          (relu2): ReLU(inplace=True)
          (conv2): Conv2d(160, 160, kernel_size=(3, 3), stride=(1, 1), padding=(1, 1), bias=False)
        )
        (2): BasicBlock(
          (bn1): BatchNorm2d(160, eps=1e-05, momentum=0.1, affine=True, track_running_stats=False)
          (relu1): ReLU(inplace=True)
          (conv1): Conv2d(160, 160, kernel_size=(3, 3), stride=(1, 1), padding=(1, 1), bias=False)
          (bn2): BatchNorm2d(160, eps=1e-05, momentum=0.1, affine=True, track_running_stats=False)
          (relu2): ReLU(inplace=True)
          (conv2): Conv2d(160, 160, kernel_size=(3, 3), stride=(1, 1), padding=(1, 1), bias=False)
        )
        (3): BasicBlock(
          (bn1): BatchNorm2d(160, eps=1e-05, momentum=0.1, affine=True, track_running_stats=False)
          (relu1): ReLU(inplace=True)
          (conv1): Conv2d(160, 160, kernel_size=(3, 3), stride=(1, 1), padding=(1, 1), bias=False)
          (bn2): BatchNorm2d(160, eps=1e-05, momentum=0.1, affine=True, track_running_stats=False)
          (relu2): ReLU(inplace=True)
          (conv2): Conv2d(160, 160, kernel_size=(3, 3), stride=(1, 1), padding=(1, 1), bias=False)
        )
      )
    )
    (block3): NetworkBlock(
      (layer): Sequential(
        (0): BasicBlock(
          (bn1): BatchNorm2d(160, eps=1e-05, momentum=0.1, affine=True, track_running_stats=False)
          (relu1): ReLU(inplace=True)
          (conv1): Conv2d(160, 320, kernel_size=(3, 3), stride=(2, 2), padding=(1, 1), bias=False)
          (bn2): BatchNorm2d(320, eps=1e-05, momentum=0.1, affine=True, track_running_stats=False)
          (relu2): ReLU(inplace=True)
          (conv2): Conv2d(320, 320, kernel_size=(3, 3), stride=(1, 1), padding=(1, 1), bias=False)
          (convShortcut): Conv2d(160, 320, kernel_size=(1, 1), stride=(2, 2), bias=False)
          (output): InternalClassifier(
            (layers): Sequential(
              (0): MaxPool2d(kernel_size=2, stride=2, padding=0, dilation=1, ceil_mode=False)
              (1): AvgPool2d(kernel_size=2, stride=2, padding=0)
              (2): Linear(in_features=5120, out_features=100, bias=True)
            )
          )
        )
        (1): BasicBlock(
          (bn1): BatchNorm2d(320, eps=1e-05, momentum=0.1, affine=True, track_running_stats=False)
          (relu1): ReLU(inplace=True)
          (conv1): Conv2d(320, 320, kernel_size=(3, 3), stride=(1, 1), padding=(1, 1), bias=False)
          (bn2): BatchNorm2d(320, eps=1e-05, momentum=0.1, affine=True, track_running_stats=False)
          (relu2): ReLU(inplace=True)
          (conv2): Conv2d(320, 320, kernel_size=(3, 3), stride=(1, 1), padding=(1, 1), bias=False)
        )
        (2): BasicBlock(
          (bn1): BatchNorm2d(320, eps=1e-05, momentum=0.1, affine=True, track_running_stats=False)
          (relu1): ReLU(inplace=True)
          (conv1): Conv2d(320, 320, kernel_size=(3, 3), stride=(1, 1), padding=(1, 1), bias=False)
          (bn2): BatchNorm2d(320, eps=1e-05, momentum=0.1, affine=True, track_running_stats=False)
          (relu2): ReLU(inplace=True)
          (conv2): Conv2d(320, 320, kernel_size=(3, 3), stride=(1, 1), padding=(1, 1), bias=False)
        )
        (3): BasicBlock(
          (bn1): BatchNorm2d(320, eps=1e-05, momentum=0.1, affine=True, track_running_stats=False)
          (relu1): ReLU(inplace=True)
          (conv1): Conv2d(320, 320, kernel_size=(3, 3), stride=(1, 1), padding=(1, 1), bias=False)
          (bn2): BatchNorm2d(320, eps=1e-05, momentum=0.1, affine=True, track_running_stats=False)
          (relu2): ReLU(inplace=True)
          (conv2): Conv2d(320, 320, kernel_size=(3, 3), stride=(1, 1), padding=(1, 1), bias=False)
        )
      )
    )
    (bn1): BatchNorm2d(320, eps=1e-05, momentum=0.1, affine=True, track_running_stats=False)
    (relu): ReLU(inplace=True)
    (fc): Linear(in_features=320, out_features=100, bias=True)
  )
)
[24/06/11 09:39:14] [cifar100c_all_resemble.py:  504]: stats for adaptation: ['module.block1.layer.0.bn1.num_batches_tracked', 'module.block1.layer.0.bn2.num_batches_tracked', 'module.block1.layer.1.bn1.num_batches_tracked', 'module.block1.layer.1.bn2.num_batches_tracked', 'module.block1.layer.2.bn1.num_batches_tracked', 'module.block1.layer.2.bn
…
  TYPE: ['gaussian_noise', 'shot_noise', 'impulse_noise', 'defocus_blur', 'glass_blur', 'motion_blur', 'zoom_blur', 'snow', 'frost', 'fog', 'brightness', 'contrast', 'elastic_transform', 'pixelate', 'jpeg_compression']
CUDNN:
  BENCHMARK: True
DATA_DIR: ./data
DESC: 
LOG_DEST: norm_Adam_0.001_bs128_em0.2.txt
LOG_TIME: 240611_102613
MODEL:
  ADAPTATION: norm
  ARCH: Standard
  EPISODIC: False
OPTIM:
  BETA: 0.9
  DAMPENING: 0.0
  LR: 0.001
  METHOD: Adam
  MOMENTUM: 0.9
  NESTEROV: True
  STEPS: 1
  WD: 0.0
RESET_CONSTANT_EM: 0.2
RNG_SEED: 1
SAVE_DIR: ./output2
TEST:
  BATCH_SIZE: 128
[24/06/11 10:26:14] [cifar100c_all_resemble.py:  129]: test-time adaptation: NORM
[24/06/11 10:26:14] [cifar100c_all_resemble.py:  502]: model for adaptation: DataParallel(
  (module): WideResNet(
    (conv1): Conv2d(3, 16, kernel_size=(3, 3), stride=(1, 1), padding=(1, 1), bias=False)
    (block1): NetworkBlock(
      (layer): Sequential(
        (0): BasicBlock(
          (bn1): BatchNorm2d(16, eps=1e-05, momentum=0.1, affine=True, track_running_stats=False)
          (relu1): ReLU(inplace=True)
          (conv1): Conv2d(16, 160, kernel_size=(3, 3), stride=(1, 1), padding=(1, 1), bias=False)
          (bn2): BatchNorm2d(160, eps=1e-05, momentum=0.1, affine=True, track_running_stats=False)
          (relu2): ReLU(inplace=True)
          (conv2): Conv2d(160, 160, kernel_size=(3, 3), stride=(1, 1), padding=(1, 1), bias=False)
          (convShortcut): Conv2d(16, 160, kernel_size=(1, 1), stride=(1, 1), bias=False)
          (output): InternalClassifier(
            (layers): Sequential(
              (0): MaxPool2d(kernel_size=8, stride=8, padding=0, dilation=1, ceil_mode=False)
              (1): AvgPool2d(kernel_size=8, stride=8, padding=0)
              (2): Linear(in_features=2560, out_features=100, bias=True)
            )
          )
        )
        (1): BasicBlock(
          (bn1): BatchNorm2d(160, eps=1e-05, momentum=0.1, affine=True, track_running_stats=False)
          (relu1): ReLU(inplace=True)
          (conv1): Conv2d(160, 160, kernel_size=(3, 3), stride=(1, 1), padding=(1, 1), bias=False)
          (bn2): BatchNorm2d(160, eps=1e-05, momentum=0.1, affine=True, track_running_stats=False)
          (relu2): ReLU(inplace=True)
          (conv2): Conv2d(160, 160, kernel_size=(3, 3), stride=(1, 1), padding=(1, 1), bias=False)
        )
        (2): BasicBlock(
          (bn1): BatchNorm2d(160, eps=1e-05, momentum=0.1, affine=True, track_running_stats=False)
          (relu1): ReLU(inplace=True)
          (conv1): Conv2d(160, 160, kernel_size=(3, 3), stride=(1, 1), padding=(1, 1), bias=False)
          (bn2): BatchNorm2d(160, eps=1e-05, momentum=0.1, affine=True, track_running_stats=False)
          (relu2): ReLU(inplace=True)
          (conv2): Conv2d(160, 160, kernel_size=(3, 3), stride=(1, 1), padding=(1, 1), bias=False)
        )
        (3): BasicBlock(
          (bn1): BatchNorm2d(160, eps=1e-05, momentum=0.1, affine=True, track_running_stats=False)
          (relu1): ReLU(inplace=True)
          (conv1): Conv2d(160, 160, kernel_size=(3, 3), stride=(1, 1), padding=(1, 1), bias=False)
          (bn2): BatchNorm2d(160, eps=1e-05, momentum=0.1, affine=True, track_running_stats=False)
          (relu2): ReLU(inplace=True)
          (conv2): Conv2d(160, 160, kernel_size=(3, 3), stride=(1, 1), padding=(1, 1), bias=False)
        )
      )
    )
    (block2): NetworkBlock(
      (layer): Sequential(
        (0): BasicBlock(
          (bn1): BatchNorm2d(160, eps=1e-05, momentum=0.1, affine=True, track_running_stats=False)
          (relu1): ReLU(inplace=True)
          (conv1): Conv2d(160, 320, kernel_size=(3, 3), stride=(2, 2), padding=(1, 1), bias=False)
          (bn2): BatchNorm2d(320, eps=1e-05, momentum=0.1, affine=True, track_running_stats=False)
          (relu2): ReLU(inplace=True)
          (conv2): Conv2d(320, 320, kernel_size=(3, 3), stride=(1, 1), padding=(1, 1), bias=False)
          (convShortcut): Conv2d(160, 320, kernel_size=(1, 1), stride=(2, 2), bias=False)
          (output): InternalClassifier(
            (layers): Sequential(
              (0): MaxPool2d(kernel_size=4, stride=4, padding=0, dilation=1, ceil_mode=False)
              (1): AvgPool2d(kernel_size=4, stride=4, padding=0)
              (2): Linear(in_features=5120, out_features=100, bias=True)
            )
          )
        )
        (1): BasicBlock(
          (bn1): BatchNorm2d(320, eps=1e-05, momentum=0.1, affine=True, track_running_stats=False)
          (relu1): ReLU(inplace=True)
          (conv1): Conv2d(320, 320, kernel_size=(3, 3), stride=(1, 1), padding=(1, 1), bias=False)
          (bn2): BatchNorm2d(320, eps=1e-05, momentum=0.1, affine=True, track_running_stats=False)
          (relu2): ReLU(inplace=True)
          (conv2): Conv2d(320, 320, kernel_size=(3, 3), stride=(1, 1), padding=(1, 1), bias=False)
        )
        (2): BasicBlock(
          (bn1): BatchNorm2d(320, eps=1e-05, momentum=0.1, affine=True, track_running_stats=False)
          (relu1): ReLU(inplace=True)
          (conv1): Conv2d(320, 320, kernel_size=(3, 3), stride=(1, 1), padding=(1, 1), bias=False)
          (bn2): BatchNorm2d(320, eps=1e-05, momentum=0.1, affine=True, track_running_stats=False)
          (relu2): ReLU(inplace=True)
          (conv2): Conv2d(320, 320, kernel_size=(3, 3), stride=(1, 1), padding=(1, 1), bias=False)
        )
        (3): BasicBlock(
          (bn1): BatchNorm2d(320, eps=1e-05, momentum=0.1, affine=True, track_running_stats=False)
          (relu1): ReLU(inplace=True)
          (conv1): Conv2d(320, 320, kernel_size=(3, 3), stride=(1, 1), padding=(1, 1), bias=False)
          (bn2): BatchNorm2d(320, eps=1e-05, momentum=0.1, affine=True, track_running_stats=False)
          (relu2): ReLU(inplace=True)
          (conv2): Conv2d(320, 320, kernel_size=(3, 3), stride=(1, 1), padding=(1, 1), bias=False)
        )
      )
    )
    (block3): NetworkBlock(
      (layer): Sequential(
        (0): BasicBlock(
          (bn1): BatchNorm2d(320, eps=1e-05, momentum=0.1, affine=True, track_running_stats=False)
          (relu1): ReLU(inplace=True)
          (conv1): Conv2d(320, 640, kernel_size=(3, 3), stride=(2, 2), padding=(1, 1), bias=False)
          (bn2): BatchNorm2d(640, eps=1e-05, momentum=0.1, affine=True, track_running_stats=False)
          (relu2): ReLU(inplace=True)
          (conv2): Conv2d(640, 640, kernel_size=(3, 3), stride=(1, 1), padding=(1, 1), bias=False)
          (convShortcut): Conv2d(320, 640, kernel_size=(1, 1), stride=(2, 2), bias=False)
          (output): InternalClassifier(
            (layers): Sequential(
              (0): MaxPool2d(kernel_size=2, stride=2, padding=0, dilation=1, ceil_mode=False)
              (1): AvgPool2d(kernel_size=2, stride=2, padding=0)
              (2): Linear(in_features=10240, out_features=100, bias=True)
            )
          )
        )
        (1): BasicBlock(
          (bn1): BatchNorm2d(640, eps=1e-05, momentum=0.1, affine=True, track_running_stats=False)
          (relu1): ReLU(inplace=True)
          (conv1): Conv2d(640, 640, kernel_size=(3, 3), stride=(1, 1), padding=(1, 1), bias=False)
          (bn2): BatchNorm2d(640, eps=1e-05, momentum=0.1, affine=True, track_running_stats=False)
          (relu2): ReLU(inplace=True)
          (conv2): Conv2d(640, 640, kernel_size=(3, 3), stride=(1, 1), padding=(1, 1), bias=False)
        )
        (2): BasicBlock(
          (bn1): BatchNorm2d(640, eps=1e-05, momentum=0.1, affine=True, track_running_stats=False)
          (relu1): ReLU(inplace=True)
          (conv1): Conv2d(640, 640, kernel_size=(3, 3), stride=(1, 1), padding=(1, 1), bias=False)
          (bn2): BatchNorm2d(640, eps=1e-05, momentum=0.1, affine=True, track_running_stats=False)
          (relu2): ReLU(inplace=True)
          (conv2): Conv2d(640, 640, kernel_size=(3, 3), stride=(1, 1), padding=(1, 1), bias=False)
        )
        (3): BasicBlock(
          (bn1): BatchNorm2d(640, eps=1e-05, momentum=0.1, affine=True, track_running_stats=False)
          (relu1): ReLU(inplace=True)
          (conv1): Conv2d(640, 640, kernel_size=(3, 3), stride=(1, 1), padding=(1, 1), bias=False)
          (bn2): BatchNorm2d(640, eps=1e-05, momentum=0.1, affine=True, track_running_stats=False)
          (relu2): ReLU(inplace=True)
          (conv2): Conv2d(640, 640, kernel_size=(3, 3), stride=(1, 1), padding=(1, 1), bias=False)
        )
      )
    )
    (bn1): BatchNorm2d(640, eps=1e-05, momentum=0.1, affine=True, track_running_stats=False)
    (relu): ReLU(inplace=True)
    (fc): Linear(in_features=640, out_features=100, bias=True)
  )
)
[24/06/11 10:26:14] [cifar100c_all_resemble.py:  504]: stats for adaptation: ['module.block1.layer.0.bn1.num_batches_tracked', 'module.block1.layer.0.bn2.num_batches_tracked', 'module.block1.layer.1.bn1.num_batches_tracked', 'module.block1.layer.1.bn2.num_batches_tracked', 'module.block1.layer.2.bn1.num_batches_tracked', 'module.block1.layer.2.bn
…
  TYPE: ['gaussian_noise', 'shot_noise', 'impulse_noise', 'defocus_blur', 'glass_blur', 'motion_blur', 'zoom_blur', 'snow', 'frost', 'fog', 'brightness', 'contrast', 'elastic_transform', 'pixelate', 'jpeg_compression']
CUDNN:
  BENCHMARK: True
DATA_DIR: ./data
DESC: 
LOG_DEST: norm_Adam_0.001_bs128_em0.2.txt
LOG_TIME: 240615_094052
MODEL:
  ADAPTATION: norm
  ARCH: Standard
  EPISODIC: False
OPTIM:
  BETA: 0.9
  DAMPENING: 0.0
  LR: 0.001
  METHOD: Adam
  MOMENTUM: 0.9
  NESTEROV: True
  STEPS: 1
  WD: 0.0
RESET_CONSTANT_EM: 0.2
RNG_SEED: 1
SAVE_DIR: ./output2
TEST:
  BATCH_SIZE: 128
[24/06/15 09:40:52] [cifar100c_all_resemble.py:  151]: test-time adaptation: NORM
[24/06/15 09:40:52] [cifar100c_all_resemble.py:  537]: model for adaptation: DataParallel(
  (module): WideResNet(
    (conv1): Conv2d(3, 16, kernel_size=(3, 3), stride=(1, 1), padding=(1, 1), bias=False)
    (block1): NetworkBlock(
      (layer): Sequential(
        (0): BasicBlock(
          (bn1): BatchNorm2d(16, eps=1e-05, momentum=0.1, affine=True, track_running_stats=False)
          (relu1): ReLU(inplace=True)
          (conv1): Conv2d(16, 112, kernel_size=(3, 3), stride=(1, 1), padding=(1, 1), bias=False)
          (bn2): BatchNorm2d(112, eps=1e-05, momentum=0.1, affine=True, track_running_stats=False)
          (relu2): ReLU(inplace=True)
          (conv2): Conv2d(112, 112, kernel_size=(3, 3), stride=(1, 1), padding=(1, 1), bias=False)
          (convShortcut): Conv2d(16, 112, kernel_size=(1, 1), stride=(1, 1), bias=False)
          (output): InternalClassifier(
            (layers): Sequential(
              (0): MaxPool2d(kernel_size=8, stride=8, padding=0, dilation=1, ceil_mode=False)
              (1): AvgPool2d(kernel_size=8, stride=8, padding=0)
              (2): Linear(in_features=1792, out_features=100, bias=True)
            )
          )
        )
        (1): BasicBlock(
          (bn1): BatchNorm2d(112, eps=1e-05, momentum=0.1, affine=True, track_running_stats=False)
          (relu1): ReLU(inplace=True)
          (conv1): Conv2d(112, 112, kernel_size=(3, 3), stride=(1, 1), padding=(1, 1), bias=False)
          (bn2): BatchNorm2d(112, eps=1e-05, momentum=0.1, affine=True, track_running_stats=False)
          (relu2): ReLU(inplace=True)
          (conv2): Conv2d(112, 112, kernel_size=(3, 3), stride=(1, 1), padding=(1, 1), bias=False)
        )
        (2): BasicBlock(
          (bn1): BatchNorm2d(112, eps=1e-05, momentum=0.1, affine=True, track_running_stats=False)
          (relu1): ReLU(inplace=True)
          (conv1): Conv2d(112, 112, kernel_size=(3, 3), stride=(1, 1), padding=(1, 1), bias=False)
          (bn2): BatchNorm2d(112, eps=1e-05, momentum=0.1, affine=True, track_running_stats=False)
          (relu2): ReLU(inplace=True)
          (conv2): Conv2d(112, 112, kernel_size=(3, 3), stride=(1, 1), padding=(1, 1), bias=False)
        )
        (3): BasicBlock(
          (bn1): BatchNorm2d(112, eps=1e-05, momentum=0.1, affine=True, track_running_stats=False)
          (relu1): ReLU(inplace=True)
          (conv1): Conv2d(112, 112, kernel_size=(3, 3), stride=(1, 1), padding=(1, 1), bias=False)
          (bn2): BatchNorm2d(112, eps=1e-05, momentum=0.1, affine=True, track_running_stats=False)
          (relu2): ReLU(inplace=True)
          (conv2): Conv2d(112, 112, kernel_size=(3, 3), stride=(1, 1), padding=(1, 1), bias=False)
        )
      )
    )
    (block2): NetworkBlock(
      (layer): Sequential(
        (0): BasicBlock(
          (bn1): BatchNorm2d(112, eps=1e-05, momentum=0.1, affine=True, track_running_stats=False)
          (relu1): ReLU(inplace=True)
          (conv1): Conv2d(112, 224, kernel_size=(3, 3), stride=(2, 2), padding=(1, 1), bias=False)
          (bn2): BatchNorm2d(224, eps=1e-05, momentum=0.1, affine=True, track_running_stats=False)
          (relu2): ReLU(inplace=True)
          (conv2): Conv2d(224, 224, kernel_size=(3, 3), stride=(1, 1), padding=(1, 1), bias=False)
          (convShortcut): Conv2d(112, 224, kernel_size=(1, 1), stride=(2, 2), bias=False)
          (output): InternalClassifier(
            (layers): Sequential(
              (0): MaxPool2d(kernel_size=4, stride=4, padding=0, dilation=1, ceil_mode=False)
              (1): AvgPool2d(kernel_size=4, stride=4, padding=0)
              (2): Linear(in_features=3584, out_features=100, bias=True)
            )
          )
        )
        (1): BasicBlock(
          (bn1): BatchNorm2d(224, eps=1e-05, momentum=0.1, affine=True, track_running_stats=False)
          (relu1): ReLU(inplace=True)
          (conv1): Conv2d(224, 224, kernel_size=(3, 3), stride=(1, 1), padding=(1, 1), bias=False)
          (bn2): BatchNorm2d(224, eps=1e-05, momentum=0.1, affine=True, track_running_stats=False)
          (relu2): ReLU(inplace=True)
          (conv2): Conv2d(224, 224, kernel_size=(3, 3), stride=(1, 1), padding=(1, 1), bias=False)
        )
        (2): BasicBlock(
          (bn1): BatchNorm2d(224, eps=1e-05, momentum=0.1, affine=True, track_running_stats=False)
          (relu1): ReLU(inplace=True)
          (conv1): Conv2d(224, 224, kernel_size=(3, 3), stride=(1, 1), padding=(1, 1), bias=False)
          (bn2): BatchNorm2d(224, eps=1e-05, momentum=0.1, affine=True, track_running_stats=False)
          (relu2): ReLU(inplace=True)
          (conv2): Conv2d(224, 224, kernel_size=(3, 3), stride=(1, 1), padding=(1, 1), bias=False)
        )
        (3): BasicBlock(
          (bn1): BatchNorm2d(224, eps=1e-05, momentum=0.1, affine=True, track_running_stats=False)
          (relu1): ReLU(inplace=True)
          (conv1): Conv2d(224, 224, kernel_size=(3, 3), stride=(1, 1), padding=(1, 1), bias=False)
          (bn2): BatchNorm2d(224, eps=1e-05, momentum=0.1, affine=True, track_running_stats=False)
          (relu2): ReLU(inplace=True)
          (conv2): Conv2d(224, 224, kernel_size=(3, 3), stride=(1, 1), padding=(1, 1), bias=False)
        )
      )
    )
    (block3): NetworkBlock(
      (layer): Sequential(
        (0): BasicBlock(
          (bn1): BatchNorm2d(224, eps=1e-05, momentum=0.1, affine=True, track_running_stats=False)
          (relu1): ReLU(inplace=True)
          (conv1): Conv2d(224, 448, kernel_size=(3, 3), stride=(2, 2), padding=(1, 1), bias=False)
          (bn2): BatchNorm2d(448, eps=1e-05, momentum=0.1, affine=True, track_running_stats=False)
          (relu2): ReLU(inplace=True)
          (conv2): Conv2d(448, 448, kernel_size=(3, 3), stride=(1, 1), padding=(1, 1), bias=False)
          (convShortcut): Conv2d(224, 448, kernel_size=(1, 1), stride=(2, 2), bias=False)
          (output): InternalClassifier(
            (layers): Sequential(
              (0): MaxPool2d(kernel_size=2, stride=2, padding=0, dilation=1, ceil_mode=False)
              (1): AvgPool2d(kernel_size=2, stride=2, padding=0)
              (2): Linear(in_features=7168, out_features=100, bias=True)
            )
          )
        )
        (1): BasicBlock(
          (bn1): BatchNorm2d(448, eps=1e-05, momentum=0.1, affine=True, track_running_stats=False)
          (relu1): ReLU(inplace=True)
          (conv1): Conv2d(448, 448, kernel_size=(3, 3), stride=(1, 1), padding=(1, 1), bias=False)
          (bn2): BatchNorm2d(448, eps=1e-05, momentum=0.1, affine=True, track_running_stats=False)
          (relu2): ReLU(inplace=True)
          (conv2): Conv2d(448, 448, kernel_size=(3, 3), stride=(1, 1), padding=(1, 1), bias=False)
        )
        (2): BasicBlock(
          (bn1): BatchNorm2d(448, eps=1e-05, momentum=0.1, affine=True, track_running_stats=False)
          (relu1): ReLU(inplace=True)
          (conv1): Conv2d(448, 448, kernel_size=(3, 3), stride=(1, 1), padding=(1, 1), bias=False)
          (bn2): BatchNorm2d(448, eps=1e-05, momentum=0.1, affine=True, track_running_stats=False)
          (relu2): ReLU(inplace=True)
          (conv2): Conv2d(448, 448, kernel_size=(3, 3), stride=(1, 1), padding=(1, 1), bias=False)
        )
        (3): BasicBlock(
          (bn1): BatchNorm2d(448, eps=1e-05, momentum=0.1, affine=True, track_running_stats=False)
          (relu1): ReLU(inplace=True)
          (conv1): Conv2d(448, 448, kernel_size=(3, 3), stride=(1, 1), padding=(1, 1), bias=False)
          (bn2): BatchNorm2d(448, eps=1e-05, momentum=0.1, affine=True, track_running_stats=False)
          (relu2): ReLU(inplace=True)
          (conv2): Conv2d(448, 448, kernel_size=(3, 3), stride=(1, 1), padding=(1, 1), bias=False)
        )
      )
    )
    (bn1): BatchNorm2d(448, eps=1e-05, momentum=0.1, affine=True, track_running_stats=False)
    (relu): ReLU(inplace=True)
    (fc): Linear(in_features=448, out_features=100, bias=True)
  )
)
[24/06/15 09:40:52] [cifar100c_all_resemble.py:  539]: stats for adaptation: ['module.block1.layer.0.bn1.num_batches_tracked', 'module.block1.layer.0.bn2.num_batches_tracked', 'module.block1.layer.1.bn1.num_batches_tracked', 'module.block1.layer.1.bn2.num_batches_tracked', 'module.block1.layer.2.bn1.num_batches_tracked', 'module.block1.layer.2.bn
…
  TYPE: ['gaussian_noise', 'shot_noise', 'impulse_noise', 'defocus_blur', 'glass_blur', 'motion_blur', 'zoom_blur', 'snow', 'frost', 'fog', 'brightness', 'contrast', 'elastic_transform', 'pixelate', 'jpeg_compression']
CUDNN:
  BENCHMARK: True
DATA_DIR: ./data
DESC: 
LOG_DEST: norm_Adam_0.001_bs128_em0.2.txt
LOG_TIME: 240615_102500
MODEL:
  ADAPTATION: norm
  ARCH: Standard
  EPISODIC: False
OPTIM:
  BETA: 0.9
  DAMPENING: 0.0
  LR: 0.001
  METHOD: Adam
  MOMENTUM: 0.9
  NESTEROV: True
  STEPS: 1
  WD: 0.0
RESET_CONSTANT_EM: 0.2
RNG_SEED: 1
SAVE_DIR: ./output2
TEST:
  BATCH_SIZE: 128
[24/06/15 10:25:00] [cifar100c_all_resemble.py:  151]: test-time adaptation: NORM
[24/06/15 10:25:01] [cifar100c_all_resemble.py:  537]: model for adaptation: DataParallel(
  (module): WideResNet(
    (conv1): Conv2d(3, 16, kernel_size=(3, 3), stride=(1, 1), padding=(1, 1), bias=False)
    (block1): NetworkBlock(
      (layer): Sequential(
        (0): BasicBlock(
          (bn1): BatchNorm2d(16, eps=1e-05, momentum=0.1, affine=True, track_running_stats=False)
          (relu1): ReLU(inplace=True)
          (conv1): Conv2d(16, 96, kernel_size=(3, 3), stride=(1, 1), padding=(1, 1), bias=False)
          (bn2): BatchNorm2d(96, eps=1e-05, momentum=0.1, affine=True, track_running_stats=False)
          (relu2): ReLU(inplace=True)
          (conv2): Conv2d(96, 96, kernel_size=(3, 3), stride=(1, 1), padding=(1, 1), bias=False)
          (convShortcut): Conv2d(16, 96, kernel_size=(1, 1), stride=(1, 1), bias=False)
          (output): InternalClassifier(
            (layers): Sequential(
              (0): MaxPool2d(kernel_size=8, stride=8, padding=0, dilation=1, ceil_mode=False)
              (1): AvgPool2d(kernel_size=8, stride=8, padding=0)
              (2): Linear(in_features=1536, out_features=100, bias=True)
            )
          )
        )
        (1): BasicBlock(
          (bn1): BatchNorm2d(96, eps=1e-05, momentum=0.1, affine=True, track_running_stats=False)
          (relu1): ReLU(inplace=True)
          (conv1): Conv2d(96, 96, kernel_size=(3, 3), stride=(1, 1), padding=(1, 1), bias=False)
          (bn2): BatchNorm2d(96, eps=1e-05, momentum=0.1, affine=True, track_running_stats=False)
          (relu2): ReLU(inplace=True)
          (conv2): Conv2d(96, 96, kernel_size=(3, 3), stride=(1, 1), padding=(1, 1), bias=False)
        )
        (2): BasicBlock(
          (bn1): BatchNorm2d(96, eps=1e-05, momentum=0.1, affine=True, track_running_stats=False)
          (relu1): ReLU(inplace=True)
          (conv1): Conv2d(96, 96, kernel_size=(3, 3), stride=(1, 1), padding=(1, 1), bias=False)
          (bn2): BatchNorm2d(96, eps=1e-05, momentum=0.1, affine=True, track_running_stats=False)
          (relu2): ReLU(inplace=True)
          (conv2): Conv2d(96, 96, kernel_size=(3, 3), stride=(1, 1), padding=(1, 1), bias=False)
        )
        (3): BasicBlock(
          (bn1): BatchNorm2d(96, eps=1e-05, momentum=0.1, affine=True, track_running_stats=False)
          (relu1): ReLU(inplace=True)
          (conv1): Conv2d(96, 96, kernel_size=(3, 3), stride=(1, 1), padding=(1, 1), bias=False)
          (bn2): BatchNorm2d(96, eps=1e-05, momentum=0.1, affine=True, track_running_stats=False)
          (relu2): ReLU(inplace=True)
          (conv2): Conv2d(96, 96, kernel_size=(3, 3), stride=(1, 1), padding=(1, 1), bias=False)
        )
      )
    )
    (block2): NetworkBlock(
      (layer): Sequential(
        (0): BasicBlock(
          (bn1): BatchNorm2d(96, eps=1e-05, momentum=0.1, affine=True, track_running_stats=False)
          (relu1): ReLU(inplace=True)
          (conv1): Conv2d(96, 192, kernel_size=(3, 3), stride=(2, 2), padding=(1, 1), bias=False)
          (bn2): BatchNorm2d(192, eps=1e-05, momentum=0.1, affine=True, track_running_stats=False)
          (relu2): ReLU(inplace=True)
          (conv2): Conv2d(192, 192, kernel_size=(3, 3), stride=(1, 1), padding=(1, 1), bias=False)
          (convShortcut): Conv2d(96, 192, kernel_size=(1, 1), stride=(2, 2), bias=False)
          (output): InternalClassifier(
            (layers): Sequential(
              (0): MaxPool2d(kernel_size=4, stride=4, padding=0, dilation=1, ceil_mode=False)
              (1): AvgPool2d(kernel_size=4, stride=4, padding=0)
              (2): Linear(in_features=3072, out_features=100, bias=True)
            )
          )
        )
        (1): BasicBlock(
          (bn1): BatchNorm2d(192, eps=1e-05, momentum=0.1, affine=True, track_running_stats=False)
          (relu1): ReLU(inplace=True)
          (conv1): Conv2d(192, 192, kernel_size=(3, 3), stride=(1, 1), padding=(1, 1), bias=False)
          (bn2): BatchNorm2d(192, eps=1e-05, momentum=0.1, affine=True, track_running_stats=False)
          (relu2): ReLU(inplace=True)
          (conv2): Conv2d(192, 192, kernel_size=(3, 3), stride=(1, 1), padding=(1, 1), bias=False)
        )
        (2): BasicBlock(
          (bn1): BatchNorm2d(192, eps=1e-05, momentum=0.1, affine=True, track_running_stats=False)
          (relu1): ReLU(inplace=True)
          (conv1): Conv2d(192, 192, kernel_size=(3, 3), stride=(1, 1), padding=(1, 1), bias=False)
          (bn2): BatchNorm2d(192, eps=1e-05, momentum=0.1, affine=True, track_running_stats=False)
          (relu2): ReLU(inplace=True)
          (conv2): Conv2d(192, 192, kernel_size=(3, 3), stride=(1, 1), padding=(1, 1), bias=False)
        )
        (3): BasicBlock(
          (bn1): BatchNorm2d(192, eps=1e-05, momentum=0.1, affine=True, track_running_stats=False)
          (relu1): ReLU(inplace=True)
          (conv1): Conv2d(192, 192, kernel_size=(3, 3), stride=(1, 1), padding=(1, 1), bias=False)
          (bn2): BatchNorm2d(192, eps=1e-05, momentum=0.1, affine=True, track_running_stats=False)
          (relu2): ReLU(inplace=True)
          (conv2): Conv2d(192, 192, kernel_size=(3, 3), stride=(1, 1), padding=(1, 1), bias=False)
        )
      )
    )
    (block3): NetworkBlock(
      (layer): Sequential(
        (0): BasicBlock(
          (bn1): BatchNorm2d(192, eps=1e-05, momentum=0.1, affine=True, track_running_stats=False)
          (relu1): ReLU(inplace=True)
          (conv1): Conv2d(192, 384, kernel_size=(3, 3), stride=(2, 2), padding=(1, 1), bias=False)
          (bn2): BatchNorm2d(384, eps=1e-05, momentum=0.1, affine=True, track_running_stats=False)
          (relu2): ReLU(inplace=True)
          (conv2): Conv2d(384, 384, kernel_size=(3, 3), stride=(1, 1), padding=(1, 1), bias=False)
          (convShortcut): Conv2d(192, 384, kernel_size=(1, 1), stride=(2, 2), bias=False)
          (output): InternalClassifier(
            (layers): Sequential(
              (0): MaxPool2d(kernel_size=2, stride=2, padding=0, dilation=1, ceil_mode=False)
              (1): AvgPool2d(kernel_size=2, stride=2, padding=0)
              (2): Linear(in_features=6144, out_features=100, bias=True)
            )
          )
        )
        (1): BasicBlock(
          (bn1): BatchNorm2d(384, eps=1e-05, momentum=0.1, affine=True, track_running_stats=False)
          (relu1): ReLU(inplace=True)
          (conv1): Conv2d(384, 384, kernel_size=(3, 3), stride=(1, 1), padding=(1, 1), bias=False)
          (bn2): BatchNorm2d(384, eps=1e-05, momentum=0.1, affine=True, track_running_stats=False)
          (relu2): ReLU(inplace=True)
          (conv2): Conv2d(384, 384, kernel_size=(3, 3), stride=(1, 1), padding=(1, 1), bias=False)
        )
        (2): BasicBlock(
          (bn1): BatchNorm2d(384, eps=1e-05, momentum=0.1, affine=True, track_running_stats=False)
          (relu1): ReLU(inplace=True)
          (conv1): Conv2d(384, 384, kernel_size=(3, 3), stride=(1, 1), padding=(1, 1), bias=False)
          (bn2): BatchNorm2d(384, eps=1e-05, momentum=0.1, affine=True, track_running_stats=False)
          (relu2): ReLU(inplace=True)
          (conv2): Conv2d(384, 384, kernel_size=(3, 3), stride=(1, 1), padding=(1, 1), bias=False)
        )
        (3): BasicBlock(
          (bn1): BatchNorm2d(384, eps=1e-05, momentum=0.1, affine=True, track_running_stats=False)
          (relu1): ReLU(inplace=True)
          (conv1): Conv2d(384, 384, kernel_size=(3, 3), stride=(1, 1), padding=(1, 1), bias=False)
          (bn2): BatchNorm2d(384, eps=1e-05, momentum=0.1, affine=True, track_running_stats=False)
          (relu2): ReLU(inplace=True)
          (conv2): Conv2d(384, 384, kernel_size=(3, 3), stride=(1, 1), padding=(1, 1), bias=False)
        )
      )
    )
    (bn1): BatchNorm2d(384, eps=1e-05, momentum=0.1, affine=True, track_running_stats=False)
    (relu): ReLU(inplace=True)
    (fc): Linear(in_features=384, out_features=100, bias=True)
  )
)
[24/06/15 10:25:01] [cifar100c_all_resemble.py:  539]: stats for adaptation: ['module.block1.layer.0.bn1.num_batches_tracked', 'module.block1.layer.0.bn2.num_batches_tracked', 'module.block1.layer.1.bn1.num_batches_tracked', 'module.block1.layer.1.bn2.num_batches_tracked', 'module.block1.layer.2.bn1.num_batches_tracked', 'module.block1.layer.2.bn
…
  TYPE: ['gaussian_noise', 'shot_noise', 'impulse_noise', 'defocus_blur', 'glass_blur', 'motion_blur', 'zoom_blur', 'snow', 'frost', 'fog', 'brightness', 'contrast', 'elastic_transform', 'pixelate', 'jpeg_compression']
CUDNN:
  BENCHMARK: True
DATA_DIR: ./data
DESC: 
LOG_DEST: norm_Adam_0.001_bs128_em0.2.txt
LOG_TIME: 240617_195523
MODEL:
  ADAPTATION: norm
  ARCH: Standard
  EPISODIC: False
OPTIM:
  BETA: 0.9
  DAMPENING: 0.0
  LR: 0.001
  METHOD: Adam
  MOMENTUM: 0.9
  NESTEROV: True
  STEPS: 1
  WD: 0.0
RESET_CONSTANT_EM: 0.2
RNG_SEED: 1
SAVE_DIR: ./output2
TEST:
  BATCH_SIZE: 128
[24/06/17 19:55:24] [cifar100c_all_resemble.py:  171]: test-time adaptation: NORM
[24/06/17 19:55:24] [cifar100c_all_resemble.py:  557]: model for adaptation: DataParallel(
  (module): WideResNet(
    (conv1): Conv2d(3, 16, kernel_size=(3, 3), stride=(1, 1), padding=(1, 1), bias=False)
    (block1): NetworkBlock(
      (layer): Sequential(
        (0): BasicBlock(
          (bn1): BatchNorm2d(16, eps=1e-05, momentum=0.1, affine=True, track_running_stats=False)
          (relu1): ReLU(inplace=True)
          (conv1): Conv2d(16, 48, kernel_size=(3, 3), stride=(1, 1), padding=(1, 1), bias=False)
          (bn2): BatchNorm2d(48, eps=1e-05, momentum=0.1, affine=True, track_running_stats=False)
          (relu2): ReLU(inplace=True)
          (conv2): Conv2d(48, 48, kernel_size=(3, 3), stride=(1, 1), padding=(1, 1), bias=False)
          (convShortcut): Conv2d(16, 48, kernel_size=(1, 1), stride=(1, 1), bias=False)
          (output): InternalClassifier(
            (layers): Sequential(
              (0): MaxPool2d(kernel_size=8, stride=8, padding=0, dilation=1, ceil_mode=False)
              (1): AvgPool2d(kernel_size=8, stride=8, padding=0)
              (2): Linear(in_features=768, out_features=100, bias=True)
            )
          )
        )
        (1): BasicBlock(
          (bn1): BatchNorm2d(48, eps=1e-05, momentum=0.1, affine=True, track_running_stats=False)
          (relu1): ReLU(inplace=True)
          (conv1): Conv2d(48, 48, kernel_size=(3, 3), stride=(1, 1), padding=(1, 1), bias=False)
          (bn2): BatchNorm2d(48, eps=1e-05, momentum=0.1, affine=True, track_running_stats=False)
          (relu2): ReLU(inplace=True)
          (conv2): Conv2d(48, 48, kernel_size=(3, 3), stride=(1, 1), padding=(1, 1), bias=False)
        )
        (2): BasicBlock(
          (bn1): BatchNorm2d(48, eps=1e-05, momentum=0.1, affine=True, track_running_stats=False)
          (relu1): ReLU(inplace=True)
          (conv1): Conv2d(48, 48, kernel_size=(3, 3), stride=(1, 1), padding=(1, 1), bias=False)
          (bn2): BatchNorm2d(48, eps=1e-05, momentum=0.1, affine=True, track_running_stats=False)
          (relu2): ReLU(inplace=True)
          (conv2): Conv2d(48, 48, kernel_size=(3, 3), stride=(1, 1), padding=(1, 1), bias=False)
        )
        (3): BasicBlock(
          (bn1): BatchNorm2d(48, eps=1e-05, momentum=0.1, affine=True, track_running_stats=False)
          (relu1): ReLU(inplace=True)
          (conv1): Conv2d(48, 48, kernel_size=(3, 3), stride=(1, 1), padding=(1, 1), bias=False)
          (bn2): BatchNorm2d(48, eps=1e-05, momentum=0.1, affine=True, track_running_stats=False)
          (relu2): ReLU(inplace=True)
          (conv2): Conv2d(48, 48, kernel_size=(3, 3), stride=(1, 1), padding=(1, 1), bias=False)
        )
      )
    )
    (block2): NetworkBlock(
      (layer): Sequential(
        (0): BasicBlock(
          (bn1): BatchNorm2d(48, eps=1e-05, momentum=0.1, affine=True, track_running_stats=False)
          (relu1): ReLU(inplace=True)
          (conv1): Conv2d(48, 96, kernel_size=(3, 3), stride=(2, 2), padding=(1, 1), bias=False)
          (bn2): BatchNorm2d(96, eps=1e-05, momentum=0.1, affine=True, track_running_stats=False)
          (relu2): ReLU(inplace=True)
          (conv2): Conv2d(96, 96, kernel_size=(3, 3), stride=(1, 1), padding=(1, 1), bias=False)
          (convShortcut): Conv2d(48, 96, kernel_size=(1, 1), stride=(2, 2), bias=False)
          (output): InternalClassifier(
            (layers): Sequential(
              (0): MaxPool2d(kernel_size=4, stride=4, padding=0, dilation=1, ceil_mode=False)
              (1): AvgPool2d(kernel_size=4, stride=4, padding=0)
              (2): Linear(in_features=1536, out_features=100, bias=True)
            )
          )
        )
        (1): BasicBlock(
          (bn1): BatchNorm2d(96, eps=1e-05, momentum=0.1, affine=True, track_running_stats=False)
          (relu1): ReLU(inplace=True)
          (conv1): Conv2d(96, 96, kernel_size=(3, 3), stride=(1, 1), padding=(1, 1), bias=False)
          (bn2): BatchNorm2d(96, eps=1e-05, momentum=0.1, affine=True, track_running_stats=False)
          (relu2): ReLU(inplace=True)
          (conv2): Conv2d(96, 96, kernel_size=(3, 3), stride=(1, 1), padding=(1, 1), bias=False)
        )
        (2): BasicBlock(
          (bn1): BatchNorm2d(96, eps=1e-05, momentum=0.1, affine=True, track_running_stats=False)
          (relu1): ReLU(inplace=True)
          (conv1): Conv2d(96, 96, kernel_size=(3, 3), stride=(1, 1), padding=(1, 1), bias=False)
          (bn2): BatchNorm2d(96, eps=1e-05, momentum=0.1, affine=True, track_running_stats=False)
          (relu2): ReLU(inplace=True)
          (conv2): Conv2d(96, 96, kernel_size=(3, 3), stride=(1, 1), padding=(1, 1), bias=False)
        )
        (3): BasicBlock(
          (bn1): BatchNorm2d(96, eps=1e-05, momentum=0.1, affine=True, track_running_stats=False)
          (relu1): ReLU(inplace=True)
          (conv1): Conv2d(96, 96, kernel_size=(3, 3), stride=(1, 1), padding=(1, 1), bias=False)
          (bn2): BatchNorm2d(96, eps=1e-05, momentum=0.1, affine=True, track_running_stats=False)
          (relu2): ReLU(inplace=True)
          (conv2): Conv2d(96, 96, kernel_size=(3, 3), stride=(1, 1), padding=(1, 1), bias=False)
        )
      )
    )
    (block3): NetworkBlock(
      (layer): Sequential(
        (0): BasicBlock(
          (bn1): BatchNorm2d(96, eps=1e-05, momentum=0.1, affine=True, track_running_stats=False)
          (relu1): ReLU(inplace=True)
          (conv1): Conv2d(96, 192, kernel_size=(3, 3), stride=(2, 2), padding=(1, 1), bias=False)
          (bn2): BatchNorm2d(192, eps=1e-05, momentum=0.1, affine=True, track_running_stats=False)
          (relu2): ReLU(inplace=True)
          (conv2): Conv2d(192, 192, kernel_size=(3, 3), stride=(1, 1), padding=(1, 1), bias=False)
          (convShortcut): Conv2d(96, 192, kernel_size=(1, 1), stride=(2, 2), bias=False)
          (output): InternalClassifier(
            (layers): Sequential(
              (0): MaxPool2d(kernel_size=2, stride=2, padding=0, dilation=1, ceil_mode=False)
              (1): AvgPool2d(kernel_size=2, stride=2, padding=0)
              (2): Linear(in_features=3072, out_features=100, bias=True)
            )
          )
        )
        (1): BasicBlock(
          (bn1): BatchNorm2d(192, eps=1e-05, momentum=0.1, affine=True, track_running_stats=False)
          (relu1): ReLU(inplace=True)
          (conv1): Conv2d(192, 192, kernel_size=(3, 3), stride=(1, 1), padding=(1, 1), bias=False)
          (bn2): BatchNorm2d(192, eps=1e-05, momentum=0.1, affine=True, track_running_stats=False)
          (relu2): ReLU(inplace=True)
          (conv2): Conv2d(192, 192, kernel_size=(3, 3), stride=(1, 1), padding=(1, 1), bias=False)
        )
        (2): BasicBlock(
          (bn1): BatchNorm2d(192, eps=1e-05, momentum=0.1, affine=True, track_running_stats=False)
          (relu1): ReLU(inplace=True)
          (conv1): Conv2d(192, 192, kernel_size=(3, 3), stride=(1, 1), padding=(1, 1), bias=False)
          (bn2): BatchNorm2d(192, eps=1e-05, momentum=0.1, affine=True, track_running_stats=False)
          (relu2): ReLU(inplace=True)
          (conv2): Conv2d(192, 192, kernel_size=(3, 3), stride=(1, 1), padding=(1, 1), bias=False)
        )
        (3): BasicBlock(
          (bn1): BatchNorm2d(192, eps=1e-05, momentum=0.1, affine=True, track_running_stats=False)
          (relu1): ReLU(inplace=True)
          (conv1): Conv2d(192, 192, kernel_size=(3, 3), stride=(1, 1), padding=(1, 1), bias=False)
          (bn2): BatchNorm2d(192, eps=1e-05, momentum=0.1, affine=True, track_running_stats=False)
          (relu2): ReLU(inplace=True)
          (conv2): Conv2d(192, 192, kernel_size=(3, 3), stride=(1, 1), padding=(1, 1), bias=False)
        )
      )
    )
    (bn1): BatchNorm2d(192, eps=1e-05, momentum=0.1, affine=True, track_running_stats=False)
    (relu): ReLU(inplace=True)
    (fc): Linear(in_features=192, out_features=100, bias=True)
  )
)
[24/06/17 19:55:24] [cifar100c_all_resemble.py:  559]: stats for adaptation: ['module.block1.layer.0.bn1.num_batches_tracked', 'module.block1.layer.0.bn2.num_batches_tracked', 'module.block1.layer.1.bn1.num_batches_tracked', 'module.block1.layer.1.bn2.num_batches_tracked', 'module.block1.layer.2.bn1.num_batches_tracked', 'module.block1.layer.2.bn
…
  TYPE: ['gaussian_noise', 'shot_noise', 'impulse_noise', 'defocus_blur', 'glass_blur', 'motion_blur', 'zoom_blur', 'snow', 'frost', 'fog', 'brightness', 'contrast', 'elastic_transform', 'pixelate', 'jpeg_compression']
CUDNN:
  BENCHMARK: True
DATA_DIR: ./data
DESC: 
LOG_DEST: norm_Adam_0.001_bs128_em0.2.txt
LOG_TIME: 240617_201919
MODEL:
  ADAPTATION: norm
  ARCH: Standard
  EPISODIC: False
OPTIM:
  BETA: 0.9
  DAMPENING: 0.0
  LR: 0.001
  METHOD: Adam
  MOMENTUM: 0.9
  NESTEROV: True
  STEPS: 1
  WD: 0.0
RESET_CONSTANT_EM: 0.2
RNG_SEED: 1
SAVE_DIR: ./output2
TEST:
  BATCH_SIZE: 128
[24/06/17 20:19:19] [cifar100c_all_resemble.py:  171]: test-time adaptation: NORM
[24/06/17 20:19:19] [cifar100c_all_resemble.py:  557]: model for adaptation: DataParallel(
  (module): WideResNet(
    (conv1): Conv2d(3, 16, kernel_size=(3, 3), stride=(1, 1), padding=(1, 1), bias=False)
    (block1): NetworkBlock(
      (layer): Sequential(
        (0): BasicBlock(
          (bn1): BatchNorm2d(16, eps=1e-05, momentum=0.1, affine=True, track_running_stats=False)
          (relu1): ReLU(inplace=True)
          (conv1): Conv2d(16, 64, kernel_size=(3, 3), stride=(1, 1), padding=(1, 1), bias=False)
          (bn2): BatchNorm2d(64, eps=1e-05, momentum=0.1, affine=True, track_running_stats=False)
          (relu2): ReLU(inplace=True)
          (conv2): Conv2d(64, 64, kernel_size=(3, 3), stride=(1, 1), padding=(1, 1), bias=False)
          (convShortcut): Conv2d(16, 64, kernel_size=(1, 1), stride=(1, 1), bias=False)
          (output): InternalClassifier(
            (layers): Sequential(
              (0): MaxPool2d(kernel_size=8, stride=8, padding=0, dilation=1, ceil_mode=False)
              (1): AvgPool2d(kernel_size=8, stride=8, padding=0)
              (2): Linear(in_features=1024, out_features=100, bias=True)
            )
          )
        )
        (1): BasicBlock(
          (bn1): BatchNorm2d(64, eps=1e-05, momentum=0.1, affine=True, track_running_stats=False)
          (relu1): ReLU(inplace=True)
          (conv1): Conv2d(64, 64, kernel_size=(3, 3), stride=(1, 1), padding=(1, 1), bias=False)
          (bn2): BatchNorm2d(64, eps=1e-05, momentum=0.1, affine=True, track_running_stats=False)
          (relu2): ReLU(inplace=True)
          (conv2): Conv2d(64, 64, kernel_size=(3, 3), stride=(1, 1), padding=(1, 1), bias=False)
        )
        (2): BasicBlock(
          (bn1): BatchNorm2d(64, eps=1e-05, momentum=0.1, affine=True, track_running_stats=False)
          (relu1): ReLU(inplace=True)
          (conv1): Conv2d(64, 64, kernel_size=(3, 3), stride=(1, 1), padding=(1, 1), bias=False)
          (bn2): BatchNorm2d(64, eps=1e-05, momentum=0.1, affine=True, track_running_stats=False)
          (relu2): ReLU(inplace=True)
          (conv2): Conv2d(64, 64, kernel_size=(3, 3), stride=(1, 1), padding=(1, 1), bias=False)
        )
        (3): BasicBlock(
          (bn1): BatchNorm2d(64, eps=1e-05, momentum=0.1, affine=True, track_running_stats=False)
          (relu1): ReLU(inplace=True)
          (conv1): Conv2d(64, 64, kernel_size=(3, 3), stride=(1, 1), padding=(1, 1), bias=False)
          (bn2): BatchNorm2d(64, eps=1e-05, momentum=0.1, affine=True, track_running_stats=False)
          (relu2): ReLU(inplace=True)
          (conv2): Conv2d(64, 64, kernel_size=(3, 3), stride=(1, 1), padding=(1, 1), bias=False)
        )
      )
    )
    (block2): NetworkBlock(
      (layer): Sequential(
        (0): BasicBlock(
          (bn1): BatchNorm2d(64, eps=1e-05, momentum=0.1, affine=True, track_running_stats=False)
          (relu1): ReLU(inplace=True)
          (conv1): Conv2d(64, 128, kernel_size=(3, 3), stride=(2, 2), padding=(1, 1), bias=False)
          (bn2): BatchNorm2d(128, eps=1e-05, momentum=0.1, affine=True, track_running_stats=False)
          (relu2): ReLU(inplace=True)
          (conv2): Conv2d(128, 128, kernel_size=(3, 3), stride=(1, 1), padding=(1, 1), bias=False)
          (convShortcut): Conv2d(64, 128, kernel_size=(1, 1), stride=(2, 2), bias=False)
          (output): InternalClassifier(
            (layers): Sequential(
              (0): MaxPool2d(kernel_size=4, stride=4, padding=0, dilation=1, ceil_mode=False)
              (1): AvgPool2d(kernel_size=4, stride=4, padding=0)
              (2): Linear(in_features=2048, out_features=100, bias=True)
            )
          )
        )
        (1): BasicBlock(
          (bn1): BatchNorm2d(128, eps=1e-05, momentum=0.1, affine=True, track_running_stats=False)
          (relu1): ReLU(inplace=True)
          (conv1): Conv2d(128, 128, kernel_size=(3, 3), stride=(1, 1), padding=(1, 1), bias=False)
          (bn2): BatchNorm2d(128, eps=1e-05, momentum=0.1, affine=True, track_running_stats=False)
          (relu2): ReLU(inplace=True)
          (conv2): Conv2d(128, 128, kernel_size=(3, 3), stride=(1, 1), padding=(1, 1), bias=False)
        )
        (2): BasicBlock(
          (bn1): BatchNorm2d(128, eps=1e-05, momentum=0.1, affine=True, track_running_stats=False)
          (relu1): ReLU(inplace=True)
          (conv1): Conv2d(128, 128, kernel_size=(3, 3), stride=(1, 1), padding=(1, 1), bias=False)
          (bn2): BatchNorm2d(128, eps=1e-05, momentum=0.1, affine=True, track_running_stats=False)
          (relu2): ReLU(inplace=True)
          (conv2): Conv2d(128, 128, kernel_size=(3, 3), stride=(1, 1), padding=(1, 1), bias=False)
        )
        (3): BasicBlock(
          (bn1): BatchNorm2d(128, eps=1e-05, momentum=0.1, affine=True, track_running_stats=False)
          (relu1): ReLU(inplace=True)
          (conv1): Conv2d(128, 128, kernel_size=(3, 3), stride=(1, 1), padding=(1, 1), bias=False)
          (bn2): BatchNorm2d(128, eps=1e-05, momentum=0.1, affine=True, track_running_stats=False)
          (relu2): ReLU(inplace=True)
          (conv2): Conv2d(128, 128, kernel_size=(3, 3), stride=(1, 1), padding=(1, 1), bias=False)
        )
      )
    )
    (block3): NetworkBlock(
      (layer): Sequential(
        (0): BasicBlock(
          (bn1): BatchNorm2d(128, eps=1e-05, momentum=0.1, affine=True, track_running_stats=False)
          (relu1): ReLU(inplace=True)
          (conv1): Conv2d(128, 256, kernel_size=(3, 3), stride=(2, 2), padding=(1, 1), bias=False)
          (bn2): BatchNorm2d(256, eps=1e-05, momentum=0.1, affine=True, track_running_stats=False)
          (relu2): ReLU(inplace=True)
          (conv2): Conv2d(256, 256, kernel_size=(3, 3), stride=(1, 1), padding=(1, 1), bias=False)
          (convShortcut): Conv2d(128, 256, kernel_size=(1, 1), stride=(2, 2), bias=False)
          (output): InternalClassifier(
            (layers): Sequential(
              (0): MaxPool2d(kernel_size=2, stride=2, padding=0, dilation=1, ceil_mode=False)
              (1): AvgPool2d(kernel_size=2, stride=2, padding=0)
              (2): Linear(in_features=4096, out_features=100, bias=True)
            )
          )
        )
        (1): BasicBlock(
          (bn1): BatchNorm2d(256, eps=1e-05, momentum=0.1, affine=True, track_running_stats=False)
          (relu1): ReLU(inplace=True)
          (conv1): Conv2d(256, 256, kernel_size=(3, 3), stride=(1, 1), padding=(1, 1), bias=False)
          (bn2): BatchNorm2d(256, eps=1e-05, momentum=0.1, affine=True, track_running_stats=False)
          (relu2): ReLU(inplace=True)
          (conv2): Conv2d(256, 256, kernel_size=(3, 3), stride=(1, 1), padding=(1, 1), bias=False)
        )
        (2): BasicBlock(
          (bn1): BatchNorm2d(256, eps=1e-05, momentum=0.1, affine=True, track_running_stats=False)
          (relu1): ReLU(inplace=True)
          (conv1): Conv2d(256, 256, kernel_size=(3, 3), stride=(1, 1), padding=(1, 1), bias=False)
          (bn2): BatchNorm2d(256, eps=1e-05, momentum=0.1, affine=True, track_running_stats=False)
          (relu2): ReLU(inplace=True)
          (conv2): Conv2d(256, 256, kernel_size=(3, 3), stride=(1, 1), padding=(1, 1), bias=False)
        )
        (3): BasicBlock(
          (bn1): BatchNorm2d(256, eps=1e-05, momentum=0.1, affine=True, track_running_stats=False)
          (relu1): ReLU(inplace=True)
          (conv1): Conv2d(256, 256, kernel_size=(3, 3), stride=(1, 1), padding=(1, 1), bias=False)
          (bn2): BatchNorm2d(256, eps=1e-05, momentum=0.1, affine=True, track_running_stats=False)
          (relu2): ReLU(inplace=True)
          (conv2): Conv2d(256, 256, kernel_size=(3, 3), stride=(1, 1), padding=(1, 1), bias=False)
        )
      )
    )
    (bn1): BatchNorm2d(256, eps=1e-05, momentum=0.1, affine=True, track_running_stats=False)
    (relu): ReLU(inplace=True)
    (fc): Linear(in_features=256, out_features=100, bias=True)
  )
)
[24/06/17 20:19:19] [cifar100c_all_resemble.py:  559]: stats for adaptation: ['module.block1.layer.0.bn1.num_batches_tracked', 'module.block1.layer.0.bn2.num_batches_tracked', 'module.block1.layer.1.bn1.num_batches_tracked', 'module.block1.layer.1.bn2.num_batches_tracked', 'module.block1.layer.2.bn1.num_batches_tracked', 'module.block1.layer.2.bn
…
  TYPE: ['gaussian_noise', 'shot_noise', 'impulse_noise', 'defocus_blur', 'glass_blur', 'motion_blur', 'zoom_blur', 'snow', 'frost', 'fog', 'brightness', 'contrast', 'elastic_transform', 'pixelate', 'jpeg_compression']
CUDNN:
  BENCHMARK: True
DATA_DIR: ./data
DESC: 
LOG_DEST: norm_Adam_0.001_bs128_em0.2.txt
LOG_TIME: 240618_220922
MODEL:
  ADAPTATION: norm
  ARCH: Standard
  EPISODIC: False
OPTIM:
  BETA: 0.9
  DAMPENING: 0.0
  LR: 0.001
  METHOD: Adam
  MOMENTUM: 0.9
  NESTEROV: True
  STEPS: 1
  WD: 0.0
RESET_CONSTANT_EM: 0.2
RNG_SEED: 1
SAVE_DIR: ./output2
TEST:
  BATCH_SIZE: 128
[24/06/18 22:09:23] [cifar100c_all_resemble.py:  175]: test-time adaptation: NORM
[24/06/18 22:09:23] [cifar100c_all_resemble.py:  562]: model for adaptation: DataParallel(
  (module): WideResNet(
    (conv1): Conv2d(3, 16, kernel_size=(3, 3), stride=(1, 1), padding=(1, 1), bias=False)
    (block1): NetworkBlock(
      (layer): Sequential(
        (0): BasicBlock(
          (bn1): BatchNorm2d(16, eps=1e-05, momentum=0.1, affine=True, track_running_stats=False)
          (relu1): ReLU(inplace=True)
          (conv1): Conv2d(16, 128, kernel_size=(3, 3), stride=(1, 1), padding=(1, 1), bias=False)
          (bn2): BatchNorm2d(128, eps=1e-05, momentum=0.1, affine=True, track_running_stats=False)
          (relu2): ReLU(inplace=True)
          (conv2): Conv2d(128, 128, kernel_size=(3, 3), stride=(1, 1), padding=(1, 1), bias=False)
          (convShortcut): Conv2d(16, 128, kernel_size=(1, 1), stride=(1, 1), bias=False)
          (output): InternalClassifier(
            (layers): Sequential(
              (0): MaxPool2d(kernel_size=8, stride=8, padding=0, dilation=1, ceil_mode=False)
              (1): AvgPool2d(kernel_size=8, stride=8, padding=0)
              (2): Linear(in_features=2048, out_features=100, bias=True)
            )
          )
        )
        (1): BasicBlock(
          (bn1): BatchNorm2d(128, eps=1e-05, momentum=0.1, affine=True, track_running_stats=False)
          (relu1): ReLU(inplace=True)
          (conv1): Conv2d(128, 128, kernel_size=(3, 3), stride=(1, 1), padding=(1, 1), bias=False)
          (bn2): BatchNorm2d(128, eps=1e-05, momentum=0.1, affine=True, track_running_stats=False)
          (relu2): ReLU(inplace=True)
          (conv2): Conv2d(128, 128, kernel_size=(3, 3), stride=(1, 1), padding=(1, 1), bias=False)
        )
        (2): BasicBlock(
          (bn1): BatchNorm2d(128, eps=1e-05, momentum=0.1, affine=True, track_running_stats=False)
          (relu1): ReLU(inplace=True)
          (conv1): Conv2d(128, 128, kernel_size=(3, 3), stride=(1, 1), padding=(1, 1), bias=False)
          (bn2): BatchNorm2d(128, eps=1e-05, momentum=0.1, affine=True, track_running_stats=False)
          (relu2): ReLU(inplace=True)
          (conv2): Conv2d(128, 128, kernel_size=(3, 3), stride=(1, 1), padding=(1, 1), bias=False)
        )
        (3): BasicBlock(
          (bn1): BatchNorm2d(128, eps=1e-05, momentum=0.1, affine=True, track_running_stats=False)
          (relu1): ReLU(inplace=True)
          (conv1): Conv2d(128, 128, kernel_size=(3, 3), stride=(1, 1), padding=(1, 1), bias=False)
          (bn2): BatchNorm2d(128, eps=1e-05, momentum=0.1, affine=True, track_running_stats=False)
          (relu2): ReLU(inplace=True)
          (conv2): Conv2d(128, 128, kernel_size=(3, 3), stride=(1, 1), padding=(1, 1), bias=False)
        )
      )
    )
    (block2): NetworkBlock(
      (layer): Sequential(
        (0): BasicBlock(
          (bn1): BatchNorm2d(128, eps=1e-05, momentum=0.1, affine=True, track_running_stats=False)
          (relu1): ReLU(inplace=True)
          (conv1): Conv2d(128, 256, kernel_size=(3, 3), stride=(2, 2), padding=(1, 1), bias=False)
          (bn2): BatchNorm2d(256, eps=1e-05, momentum=0.1, affine=True, track_running_stats=False)
          (relu2): ReLU(inplace=True)
          (conv2): Conv2d(256, 256, kernel_size=(3, 3), stride=(1, 1), padding=(1, 1), bias=False)
          (convShortcut): Conv2d(128, 256, kernel_size=(1, 1), stride=(2, 2), bias=False)
          (output): InternalClassifier(
            (layers): Sequential(
              (0): MaxPool2d(kernel_size=4, stride=4, padding=0, dilation=1, ceil_mode=False)
              (1): AvgPool2d(kernel_size=4, stride=4, padding=0)
              (2): Linear(in_features=4096, out_features=100, bias=True)
            )
          )
        )
        (1): BasicBlock(
          (bn1): BatchNorm2d(256, eps=1e-05, momentum=0.1, affine=True, track_running_stats=False)
          (relu1): ReLU(inplace=True)
          (conv1): Conv2d(256, 256, kernel_size=(3, 3), stride=(1, 1), padding=(1, 1), bias=False)
          (bn2): BatchNorm2d(256, eps=1e-05, momentum=0.1, affine=True, track_running_stats=False)
          (relu2): ReLU(inplace=True)
          (conv2): Conv2d(256, 256, kernel_size=(3, 3), stride=(1, 1), padding=(1, 1), bias=False)
        )
        (2): BasicBlock(
          (bn1): BatchNorm2d(256, eps=1e-05, momentum=0.1, affine=True, track_running_stats=False)
          (relu1): ReLU(inplace=True)
          (conv1): Conv2d(256, 256, kernel_size=(3, 3), stride=(1, 1), padding=(1, 1), bias=False)
          (bn2): BatchNorm2d(256, eps=1e-05, momentum=0.1, affine=True, track_running_stats=False)
          (relu2): ReLU(inplace=True)
          (conv2): Conv2d(256, 256, kernel_size=(3, 3), stride=(1, 1), padding=(1, 1), bias=False)
        )
        (3): BasicBlock(
          (bn1): BatchNorm2d(256, eps=1e-05, momentum=0.1, affine=True, track_running_stats=False)
          (relu1): ReLU(inplace=True)
          (conv1): Conv2d(256, 256, kernel_size=(3, 3), stride=(1, 1), padding=(1, 1), bias=False)
          (bn2): BatchNorm2d(256, eps=1e-05, momentum=0.1, affine=True, track_running_stats=False)
          (relu2): ReLU(inplace=True)
          (conv2): Conv2d(256, 256, kernel_size=(3, 3), stride=(1, 1), padding=(1, 1), bias=False)
        )
      )
    )
    (block3): NetworkBlock(
      (layer): Sequential(
        (0): BasicBlock(
          (bn1): BatchNorm2d(256, eps=1e-05, momentum=0.1, affine=True, track_running_stats=False)
          (relu1): ReLU(inplace=True)
          (conv1): Conv2d(256, 512, kernel_size=(3, 3), stride=(2, 2), padding=(1, 1), bias=False)
          (bn2): BatchNorm2d(512, eps=1e-05, momentum=0.1, affine=True, track_running_stats=False)
          (relu2): ReLU(inplace=True)
          (conv2): Conv2d(512, 512, kernel_size=(3, 3), stride=(1, 1), padding=(1, 1), bias=False)
          (convShortcut): Conv2d(256, 512, kernel_size=(1, 1), stride=(2, 2), bias=False)
          (output): InternalClassifier(
            (layers): Sequential(
              (0): MaxPool2d(kernel_size=2, stride=2, padding=0, dilation=1, ceil_mode=False)
              (1): AvgPool2d(kernel_size=2, stride=2, padding=0)
              (2): Linear(in_features=8192, out_features=100, bias=True)
            )
          )
        )
        (1): BasicBlock(
          (bn1): BatchNorm2d(512, eps=1e-05, momentum=0.1, affine=True, track_running_stats=False)
          (relu1): ReLU(inplace=True)
          (conv1): Conv2d(512, 512, kernel_size=(3, 3), stride=(1, 1), padding=(1, 1), bias=False)
          (bn2): BatchNorm2d(512, eps=1e-05, momentum=0.1, affine=True, track_running_stats=False)
          (relu2): ReLU(inplace=True)
          (conv2): Conv2d(512, 512, kernel_size=(3, 3), stride=(1, 1), padding=(1, 1), bias=False)
        )
        (2): BasicBlock(
          (bn1): BatchNorm2d(512, eps=1e-05, momentum=0.1, affine=True, track_running_stats=False)
          (relu1): ReLU(inplace=True)
          (conv1): Conv2d(512, 512, kernel_size=(3, 3), stride=(1, 1), padding=(1, 1), bias=False)
          (bn2): BatchNorm2d(512, eps=1e-05, momentum=0.1, affine=True, track_running_stats=False)
          (relu2): ReLU(inplace=True)
          (conv2): Conv2d(512, 512, kernel_size=(3, 3), stride=(1, 1), padding=(1, 1), bias=False)
        )
        (3): BasicBlock(
          (bn1): BatchNorm2d(512, eps=1e-05, momentum=0.1, affine=True, track_running_stats=False)
          (relu1): ReLU(inplace=True)
          (conv1): Conv2d(512, 512, kernel_size=(3, 3), stride=(1, 1), padding=(1, 1), bias=False)
          (bn2): BatchNorm2d(512, eps=1e-05, momentum=0.1, affine=True, track_running_stats=False)
          (relu2): ReLU(inplace=True)
          (conv2): Conv2d(512, 512, kernel_size=(3, 3), stride=(1, 1), padding=(1, 1), bias=False)
        )
      )
    )
    (bn1): BatchNorm2d(512, eps=1e-05, momentum=0.1, affine=True, track_running_stats=False)
    (relu): ReLU(inplace=True)
    (fc): Linear(in_features=512, out_features=100, bias=True)
  )
)
[24/06/18 22:09:23] [cifar100c_all_resemble.py:  564]: stats for adaptation: ['module.block1.layer.0.bn1.num_batches_tracked', 'module.block1.layer.0.bn2.num_batches_tracked', 'module.block1.layer.1.bn1.num_batches_tracked', 'module.block1.layer.1.bn2.num_batches_tracked', 'module.block1.layer.2.bn1.num_batches_tracked', 'module.block1.layer.2.bn
…
  TYPE: ['gaussian_noise', 'shot_noise', 'impulse_noise', 'defocus_blur', 'glass_blur', 'motion_blur', 'zoom_blur', 'snow', 'frost', 'fog', 'brightness', 'contrast', 'elastic_transform', 'pixelate', 'jpeg_compression']
CUDNN:
  BENCHMARK: True
DATA_DIR: ./data
DESC: 
LOG_DEST: norm_Adam_0.001_bs128_em0.2.txt
LOG_TIME: 240620_092933
MODEL:
  ADAPTATION: norm
  ARCH: Standard
  EPISODIC: False
OPTIM:
  BETA: 0.9
  DAMPENING: 0.0
  LR: 0.001
  METHOD: Adam
  MOMENTUM: 0.9
  NESTEROV: True
  STEPS: 1
  WD: 0.0
RESET_CONSTANT_EM: 0.2
RNG_SEED: 1
SAVE_DIR: ./output2
TEST:
  BATCH_SIZE: 128
[24/06/20 09:29:33] [cifar100c_all_resemble.py:  176]: test-time adaptation: NORM
[24/06/20 09:29:33] [cifar100c_all_resemble.py:  563]: model for adaptation: DataParallel(
  (module): WideResNet(
    (conv1): Conv2d(3, 16, kernel_size=(3, 3), stride=(1, 1), padding=(1, 1), bias=False)
    (block1): NetworkBlock(
      (layer): Sequential(
        (0): BasicBlock(
          (bn1): BatchNorm2d(16, eps=1e-05, momentum=0.1, affine=True, track_running_stats=False)
          (relu1): ReLU(inplace=True)
          (conv1): Conv2d(16, 144, kernel_size=(3, 3), stride=(1, 1), padding=(1, 1), bias=False)
          (bn2): BatchNorm2d(144, eps=1e-05, momentum=0.1, affine=True, track_running_stats=False)
          (relu2): ReLU(inplace=True)
          (conv2): Conv2d(144, 144, kernel_size=(3, 3), stride=(1, 1), padding=(1, 1), bias=False)
          (convShortcut): Conv2d(16, 144, kernel_size=(1, 1), stride=(1, 1), bias=False)
          (output): InternalClassifier(
            (layers): Sequential(
              (0): MaxPool2d(kernel_size=8, stride=8, padding=0, dilation=1, ceil_mode=False)
              (1): AvgPool2d(kernel_size=8, stride=8, padding=0)
              (2): Linear(in_features=2304, out_features=100, bias=True)
            )
          )
        )
        (1): BasicBlock(
          (bn1): BatchNorm2d(144, eps=1e-05, momentum=0.1, affine=True, track_running_stats=False)
          (relu1): ReLU(inplace=True)
          (conv1): Conv2d(144, 144, kernel_size=(3, 3), stride=(1, 1), padding=(1, 1), bias=False)
          (bn2): BatchNorm2d(144, eps=1e-05, momentum=0.1, affine=True, track_running_stats=False)
          (relu2): ReLU(inplace=True)
          (conv2): Conv2d(144, 144, kernel_size=(3, 3), stride=(1, 1), padding=(1, 1), bias=False)
        )
        (2): BasicBlock(
          (bn1): BatchNorm2d(144, eps=1e-05, momentum=0.1, affine=True, track_running_stats=False)
          (relu1): ReLU(inplace=True)
          (conv1): Conv2d(144, 144, kernel_size=(3, 3), stride=(1, 1), padding=(1, 1), bias=False)
          (bn2): BatchNorm2d(144, eps=1e-05, momentum=0.1, affine=True, track_running_stats=False)
          (relu2): ReLU(inplace=True)
          (conv2): Conv2d(144, 144, kernel_size=(3, 3), stride=(1, 1), padding=(1, 1), bias=False)
        )
        (3): BasicBlock(
          (bn1): BatchNorm2d(144, eps=1e-05, momentum=0.1, affine=True, track_running_stats=False)
          (relu1): ReLU(inplace=True)
          (conv1): Conv2d(144, 144, kernel_size=(3, 3), stride=(1, 1), padding=(1, 1), bias=False)
          (bn2): BatchNorm2d(144, eps=1e-05, momentum=0.1, affine=True, track_running_stats=False)
          (relu2): ReLU(inplace=True)
          (conv2): Conv2d(144, 144, kernel_size=(3, 3), stride=(1, 1), padding=(1, 1), bias=False)
        )
      )
    )
    (block2): NetworkBlock(
      (layer): Sequential(
        (0): BasicBlock(
          (bn1): BatchNorm2d(144, eps=1e-05, momentum=0.1, affine=True, track_running_stats=False)
          (relu1): ReLU(inplace=True)
          (conv1): Conv2d(144, 288, kernel_size=(3, 3), stride=(2, 2), padding=(1, 1), bias=False)
          (bn2): BatchNorm2d(288, eps=1e-05, momentum=0.1, affine=True, track_running_stats=False)
          (relu2): ReLU(inplace=True)
          (conv2): Conv2d(288, 288, kernel_size=(3, 3), stride=(1, 1), padding=(1, 1), bias=False)
          (convShortcut): Conv2d(144, 288, kernel_size=(1, 1), stride=(2, 2), bias=False)
          (output): InternalClassifier(
            (layers): Sequential(
              (0): MaxPool2d(kernel_size=4, stride=4, padding=0, dilation=1, ceil_mode=False)
              (1): AvgPool2d(kernel_size=4, stride=4, padding=0)
              (2): Linear(in_features=4608, out_features=100, bias=True)
            )
          )
        )
        (1): BasicBlock(
          (bn1): BatchNorm2d(288, eps=1e-05, momentum=0.1, affine=True, track_running_stats=False)
          (relu1): ReLU(inplace=True)
          (conv1): Conv2d(288, 288, kernel_size=(3, 3), stride=(1, 1), padding=(1, 1), bias=False)
          (bn2): BatchNorm2d(288, eps=1e-05, momentum=0.1, affine=True, track_running_stats=False)
          (relu2): ReLU(inplace=True)
          (conv2): Conv2d(288, 288, kernel_size=(3, 3), stride=(1, 1), padding=(1, 1), bias=False)
        )
        (2): BasicBlock(
          (bn1): BatchNorm2d(288, eps=1e-05, momentum=0.1, affine=True, track_running_stats=False)
          (relu1): ReLU(inplace=True)
          (conv1): Conv2d(288, 288, kernel_size=(3, 3), stride=(1, 1), padding=(1, 1), bias=False)
          (bn2): BatchNorm2d(288, eps=1e-05, momentum=0.1, affine=True, track_running_stats=False)
          (relu2): ReLU(inplace=True)
          (conv2): Conv2d(288, 288, kernel_size=(3, 3), stride=(1, 1), padding=(1, 1), bias=False)
        )
        (3): BasicBlock(
          (bn1): BatchNorm2d(288, eps=1e-05, momentum=0.1, affine=True, track_running_stats=False)
          (relu1): ReLU(inplace=True)
          (conv1): Conv2d(288, 288, kernel_size=(3, 3), stride=(1, 1), padding=(1, 1), bias=False)
          (bn2): BatchNorm2d(288, eps=1e-05, momentum=0.1, affine=True, track_running_stats=False)
          (relu2): ReLU(inplace=True)
          (conv2): Conv2d(288, 288, kernel_size=(3, 3), stride=(1, 1), padding=(1, 1), bias=False)
        )
      )
    )
    (block3): NetworkBlock(
      (layer): Sequential(
        (0): BasicBlock(
          (bn1): BatchNorm2d(288, eps=1e-05, momentum=0.1, affine=True, track_running_stats=False)
          (relu1): ReLU(inplace=True)
          (conv1): Conv2d(288, 576, kernel_size=(3, 3), stride=(2, 2), padding=(1, 1), bias=False)
          (bn2): BatchNorm2d(576, eps=1e-05, momentum=0.1, affine=True, track_running_stats=False)
          (relu2): ReLU(inplace=True)
          (conv2): Conv2d(576, 576, kernel_size=(3, 3), stride=(1, 1), padding=(1, 1), bias=False)
          (convShortcut): Conv2d(288, 576, kernel_size=(1, 1), stride=(2, 2), bias=False)
          (output): InternalClassifier(
            (layers): Sequential(
              (0): MaxPool2d(kernel_size=2, stride=2, padding=0, dilation=1, ceil_mode=False)
              (1): AvgPool2d(kernel_size=2, stride=2, padding=0)
              (2): Linear(in_features=9216, out_features=100, bias=True)
            )
          )
        )
        (1): BasicBlock(
          (bn1): BatchNorm2d(576, eps=1e-05, momentum=0.1, affine=True, track_running_stats=False)
          (relu1): ReLU(inplace=True)
          (conv1): Conv2d(576, 576, kernel_size=(3, 3), stride=(1, 1), padding=(1, 1), bias=False)
          (bn2): BatchNorm2d(576, eps=1e-05, momentum=0.1, affine=True, track_running_stats=False)
          (relu2): ReLU(inplace=True)
          (conv2): Conv2d(576, 576, kernel_size=(3, 3), stride=(1, 1), padding=(1, 1), bias=False)
        )
        (2): BasicBlock(
          (bn1): BatchNorm2d(576, eps=1e-05, momentum=0.1, affine=True, track_running_stats=False)
          (relu1): ReLU(inplace=True)
          (conv1): Conv2d(576, 576, kernel_size=(3, 3), stride=(1, 1), padding=(1, 1), bias=False)
          (bn2): BatchNorm2d(576, eps=1e-05, momentum=0.1, affine=True, track_running_stats=False)
          (relu2): ReLU(inplace=True)
          (conv2): Conv2d(576, 576, kernel_size=(3, 3), stride=(1, 1), padding=(1, 1), bias=False)
        )
        (3): BasicBlock(
          (bn1): BatchNorm2d(576, eps=1e-05, momentum=0.1, affine=True, track_running_stats=False)
          (relu1): ReLU(inplace=True)
          (conv1): Conv2d(576, 576, kernel_size=(3, 3), stride=(1, 1), padding=(1, 1), bias=False)
          (bn2): BatchNorm2d(576, eps=1e-05, momentum=0.1, affine=True, track_running_stats=False)
          (relu2): ReLU(inplace=True)
          (conv2): Conv2d(576, 576, kernel_size=(3, 3), stride=(1, 1), padding=(1, 1), bias=False)
        )
      )
    )
    (bn1): BatchNorm2d(576, eps=1e-05, momentum=0.1, affine=True, track_running_stats=False)
    (relu): ReLU(inplace=True)
    (fc): Linear(in_features=576, out_features=100, bias=True)
  )
)
[24/06/20 09:29:33] [cifar100c_all_resemble.py:  565]: stats for adaptation: ['module.block1.layer.0.bn1.num_batches_tracked', 'module.block1.layer.0.bn2.num_batches_tracked', 'module.block1.layer.1.bn1.num_batches_tracked', 'module.block1.layer.1.bn2.num_batches_tracked', 'module.block1.layer.2.bn1.num_batches_tracked', 'module.block1.layer.2.bn
…
  TYPE: ['gaussian_noise', 'shot_noise', 'impulse_noise', 'defocus_blur', 'glass_blur', 'motion_blur', 'zoom_blur', 'snow', 'frost', 'fog', 'brightness', 'contrast', 'elastic_transform', 'pixelate', 'jpeg_compression']
CUDNN:
  BENCHMARK: True
DATA_DIR: ./data
DESC: 
LOG_DEST: norm_Adam_0.001_bs128_em0.2.txt
LOG_TIME: 240621_113319
MODEL:
  ADAPTATION: norm
  ARCH: Standard
  EPISODIC: False
OPTIM:
  BETA: 0.9
  DAMPENING: 0.0
  LR: 0.001
  METHOD: Adam
  MOMENTUM: 0.9
  NESTEROV: True
  STEPS: 1
  WD: 0.0
RESET_CONSTANT_EM: 0.2
RNG_SEED: 1
SAVE_DIR: ./output2
TEST:
  BATCH_SIZE: 128
[24/06/21 11:33:20] [tinyImagenetC_all_resemble.py:  176]: test-time adaptation: NORM
[24/06/21 11:33:20] [tinyImagenetC_all_resemble.py:  562]: model for adaptation: DataParallel(
  (module): WideResNet(
    (conv1): Conv2d(3, 16, kernel_size=(3, 3), stride=(1, 1), padding=(1, 1), bias=False)
    (block1): NetworkBlock(
      (layer): Sequential(
        (0): BasicBlock(
          (bn1): BatchNorm2d(16, eps=1e-05, momentum=0.1, affine=True, track_running_stats=False)
          (relu1): ReLU(inplace=True)
          (conv1): Conv2d(16, 16, kernel_size=(3, 3), stride=(1, 1), padding=(1, 1), bias=False)
          (bn2): BatchNorm2d(16, eps=1e-05, momentum=0.1, affine=True, track_running_stats=False)
          (relu2): ReLU(inplace=True)
          (conv2): Conv2d(16, 16, kernel_size=(3, 3), stride=(1, 1), padding=(1, 1), bias=False)
          (output): InternalClassifier(
            (layers): Sequential(
              (0): MaxPool2d(kernel_size=16, stride=16, padding=0, dilation=1, ceil_mode=False)
              (1): AvgPool2d(kernel_size=16, stride=16, padding=0)
              (2): Linear(in_features=256, out_features=200, bias=True)
            )
          )
        )
        (1): BasicBlock(
          (bn1): BatchNorm2d(16, eps=1e-05, momentum=0.1, affine=True, track_running_stats=False)
          (relu1): ReLU(inplace=True)
          (conv1): Conv2d(16, 16, kernel_size=(3, 3), stride=(1, 1), padding=(1, 1), bias=False)
          (bn2): BatchNorm2d(16, eps=1e-05, momentum=0.1, affine=True, track_running_stats=False)
          (relu2): ReLU(inplace=True)
          (conv2): Conv2d(16, 16, kernel_size=(3, 3), stride=(1, 1), padding=(1, 1), bias=False)
        )
        (2): BasicBlock(
          (bn1): BatchNorm2d(16, eps=1e-05, momentum=0.1, affine=True, track_running_stats=False)
          (relu1): ReLU(inplace=True)
          (conv1): Conv2d(16, 16, kernel_size=(3, 3), stride=(1, 1), padding=(1, 1), bias=False)
          (bn2): BatchNorm2d(16, eps=1e-05, momentum=0.1, affine=True, track_running_stats=False)
          (relu2): ReLU(inplace=True)
          (conv2): Conv2d(16, 16, kernel_size=(3, 3), stride=(1, 1), padding=(1, 1), bias=False)
        )
        (3): BasicBlock(
          (bn1): BatchNorm2d(16, eps=1e-05, momentum=0.1, affine=True, track_running_stats=False)
          (relu1): ReLU(inplace=True)
          (conv1): Conv2d(16, 16, kernel_size=(3, 3), stride=(1, 1), padding=(1, 1), bias=False)
          (bn2): BatchNorm2d(16, eps=1e-05, momentum=0.1, affine=True, track_running_stats=False)
          (relu2): ReLU(inplace=True)
          (conv2): Conv2d(16, 16, kernel_size=(3, 3), stride=(1, 1), padding=(1, 1), bias=False)
        )
      )
    )
    (block2): NetworkBlock(
      (layer): Sequential(
        (0): BasicBlock(
          (bn1): BatchNorm2d(16, eps=1e-05, momentum=0.1, affine=True, track_running_stats=False)
          (relu1): ReLU(inplace=True)
          (conv1): Conv2d(16, 32, kernel_size=(3, 3), stride=(2, 2), padding=(1, 1), bias=False)
          (bn2): BatchNorm2d(32, eps=1e-05, momentum=0.1, affine=True, track_running_stats=False)
          (relu2): ReLU(inplace=True)
          (conv2): Conv2d(32, 32, kernel_size=(3, 3), stride=(1, 1), padding=(1, 1), bias=False)
          (convShortcut): Conv2d(16, 32, kernel_size=(1, 1), stride=(2, 2), bias=False)
          (output): InternalClassifier(
            (layers): Sequential(
              (0): MaxPool2d(kernel_size=8, stride=8, padding=0, dilation=1, ceil_mode=False)
              (1): AvgPool2d(kernel_size=8, stride=8, padding=0)
              (2): Linear(in_features=512, out_features=200, bias=True)
            )
          )
        )
        (1): BasicBlock(
          (bn1): BatchNorm2d(32, eps=1e-05, momentum=0.1, affine=True, track_running_stats=False)
          (relu1): ReLU(inplace=True)
          (conv1): Conv2d(32, 32, kernel_size=(3, 3), stride=(1, 1), padding=(1, 1), bias=False)
          (bn2): BatchNorm2d(32, eps=1e-05, momentum=0.1, affine=True, track_running_stats=False)
          (relu2): ReLU(inplace=True)
          (conv2): Conv2d(32, 32, kernel_size=(3, 3), stride=(1, 1), padding=(1, 1), bias=False)
        )
        (2): BasicBlock(
          (bn1): BatchNorm2d(32, eps=1e-05, momentum=0.1, affine=True, track_running_stats=False)
          (relu1): ReLU(inplace=True)
          (conv1): Conv2d(32, 32, kernel_size=(3, 3), stride=(1, 1), padding=(1, 1), bias=False)
          (bn2): BatchNorm2d(32, eps=1e-05, momentum=0.1, affine=True, track_running_stats=False)
          (relu2): ReLU(inplace=True)
          (conv2): Conv2d(32, 32, kernel_size=(3, 3), stride=(1, 1), padding=(1, 1), bias=False)
        )
        (3): BasicBlock(
          (bn1): BatchNorm2d(32, eps=1e-05, momentum=0.1, affine=True, track_running_stats=False)
          (relu1): ReLU(inplace=True)
          (conv1): Conv2d(32, 32, kernel_size=(3, 3), stride=(1, 1), padding=(1, 1), bias=False)
          (bn2): BatchNorm2d(32, eps=1e-05, momentum=0.1, affine=True, track_running_stats=False)
          (relu2): ReLU(inplace=True)
          (conv2): Conv2d(32, 32, kernel_size=(3, 3), stride=(1, 1), padding=(1, 1), bias=False)
        )
      )
    )
    (block3): NetworkBlock(
      (layer): Sequential(
        (0): BasicBlock(
          (bn1): BatchNorm2d(32, eps=1e-05, momentum=0.1, affine=True, track_running_stats=False)
          (relu1): ReLU(inplace=True)
          (conv1): Conv2d(32, 64, kernel_size=(3, 3), stride=(2, 2), padding=(1, 1), bias=False)
          (bn2): BatchNorm2d(64, eps=1e-05, momentum=0.1, affine=True, track_running_stats=False)
          (relu2): ReLU(inplace=True)
          (conv2): Conv2d(64, 64, kernel_size=(3, 3), stride=(1, 1), padding=(1, 1), bias=False)
          (convShortcut): Conv2d(32, 64, kernel_size=(1, 1), stride=(2, 2), bias=False)
          (output): InternalClassifier(
            (layers): Sequential(
              (0): MaxPool2d(kernel_size=4, stride=4, padding=0, dilation=1, ceil_mode=False)
              (1): AvgPool2d(kernel_size=4, stride=4, padding=0)
              (2): Linear(in_features=1024, out_features=200, bias=True)
            )
          )
        )
        (1): BasicBlock(
          (bn1): BatchNorm2d(64, eps=1e-05, momentum=0.1, affine=True, track_running_stats=False)
          (relu1): ReLU(inplace=True)
          (conv1): Conv2d(64, 64, kernel_size=(3, 3), stride=(1, 1), padding=(1, 1), bias=False)
          (bn2): BatchNorm2d(64, eps=1e-05, momentum=0.1, affine=True, track_running_stats=False)
          (relu2): ReLU(inplace=True)
          (conv2): Conv2d(64, 64, kernel_size=(3, 3), stride=(1, 1), padding=(1, 1), bias=False)
        )
        (2): BasicBlock(
          (bn1): BatchNorm2d(64, eps=1e-05, momentum=0.1, affine=True, track_running_stats=False)
          (relu1): ReLU(inplace=True)
          (conv1): Conv2d(64, 64, kernel_size=(3, 3), stride=(1, 1), padding=(1, 1), bias=False)
          (bn2): BatchNorm2d(64, eps=1e-05, momentum=0.1, affine=True, track_running_stats=False)
          (relu2): ReLU(inplace=True)
          (conv2): Conv2d(64, 64, kernel_size=(3, 3), stride=(1, 1), padding=(1, 1), bias=False)
        )
        (3): BasicBlock(
          (bn1): BatchNorm2d(64, eps=1e-05, momentum=0.1, affine=True, track_running_stats=False)
          (relu1): ReLU(inplace=True)
          (conv1): Conv2d(64, 64, kernel_size=(3, 3), stride=(1, 1), padding=(1, 1), bias=False)
          (bn2): BatchNorm2d(64, eps=1e-05, momentum=0.1, affine=True, track_running_stats=False)
          (relu2): ReLU(inplace=True)
          (conv2): Conv2d(64, 64, kernel_size=(3, 3), stride=(1, 1), padding=(1, 1), bias=False)
        )
      )
    )
    (bn1): BatchNorm2d(64, eps=1e-05, momentum=0.1, affine=True, track_running_stats=False)
    (relu): ReLU(inplace=True)
    (fc): Linear(in_features=64, out_features=200, bias=True)
  )
)
[24/06/21 11:33:20] [tinyImagenetC_all_resemble.py:  564]: stats for adaptation: ['module.block1.layer.0.bn1.num_batches_tracked', 'module.block1.layer.0.bn2.num_batches_tracked', 'module.block1.layer.1.bn1.num_batches_tracked', 'module.block1.layer.1.bn2.num_batches_tracked', 'module.block1.layer.2.bn1.num_batches_tracked', 'module.block1.layer.2
…
  TYPE: ['gaussian_noise', 'shot_noise', 'impulse_noise', 'defocus_blur', 'glass_blur', 'motion_blur', 'zoom_blur', 'snow', 'frost', 'fog', 'brightness', 'contrast', 'elastic_transform', 'pixelate', 'jpeg_compression']
CUDNN:
  BENCHMARK: True
DATA_DIR: ./data
DESC: 
LOG_DEST: norm_Adam_0.001_bs128_em0.2.txt
LOG_TIME: 240622_111454
MODEL:
  ADAPTATION: norm
  ARCH: Standard
  EPISODIC: False
OPTIM:
  BETA: 0.9
  DAMPENING: 0.0
  LR: 0.001
  METHOD: Adam
  MOMENTUM: 0.9
  NESTEROV: True
  STEPS: 1
  WD: 0.0
RESET_CONSTANT_EM: 0.2
RNG_SEED: 1
SAVE_DIR: ./output2
TEST:
  BATCH_SIZE: 128
[24/06/22 11:14:54] [tinyImagenetC_all_resemble.py:  176]: test-time adaptation: NORM
[24/06/22 11:14:54] [tinyImagenetC_all_resemble.py:  562]: model for adaptation: DataParallel(
  (module): WideResNet(
    (conv1): Conv2d(3, 16, kernel_size=(3, 3), stride=(1, 1), padding=(1, 1), bias=False)
    (block1): NetworkBlock(
      (layer): Sequential(
        (0): BasicBlock(
          (bn1): BatchNorm2d(16, eps=1e-05, momentum=0.1, affine=True, track_running_stats=False)
          (relu1): ReLU(inplace=True)
          (conv1): Conv2d(16, 160, kernel_size=(3, 3), stride=(1, 1), padding=(1, 1), bias=False)
          (bn2): BatchNorm2d(160, eps=1e-05, momentum=0.1, affine=True, track_running_stats=False)
          (relu2): ReLU(inplace=True)
          (conv2): Conv2d(160, 160, kernel_size=(3, 3), stride=(1, 1), padding=(1, 1), bias=False)
          (convShortcut): Conv2d(16, 160, kernel_size=(1, 1), stride=(1, 1), bias=False)
          (output): InternalClassifier(
            (layers): Sequential(
              (0): MaxPool2d(kernel_size=8, stride=8, padding=0, dilation=1, ceil_mode=False)
              (1): AvgPool2d(kernel_size=8, stride=8, padding=0)
              (2): Linear(in_features=2560, out_features=200, bias=True)
            )
          )
        )
        (1): BasicBlock(
          (bn1): BatchNorm2d(160, eps=1e-05, momentum=0.1, affine=True, track_running_stats=False)
          (relu1): ReLU(inplace=True)
          (conv1): Conv2d(160, 160, kernel_size=(3, 3), stride=(1, 1), padding=(1, 1), bias=False)
          (bn2): BatchNorm2d(160, eps=1e-05, momentum=0.1, affine=True, track_running_stats=False)
          (relu2): ReLU(inplace=True)
          (conv2): Conv2d(160, 160, kernel_size=(3, 3), stride=(1, 1), padding=(1, 1), bias=False)
        )
        (2): BasicBlock(
          (bn1): BatchNorm2d(160, eps=1e-05, momentum=0.1, affine=True, track_running_stats=False)
          (relu1): ReLU(inplace=True)
          (conv1): Conv2d(160, 160, kernel_size=(3, 3), stride=(1, 1), padding=(1, 1), bias=False)
          (bn2): BatchNorm2d(160, eps=1e-05, momentum=0.1, affine=True, track_running_stats=False)
          (relu2): ReLU(inplace=True)
          (conv2): Conv2d(160, 160, kernel_size=(3, 3), stride=(1, 1), padding=(1, 1), bias=False)
        )
        (3): BasicBlock(
          (bn1): BatchNorm2d(160, eps=1e-05, momentum=0.1, affine=True, track_running_stats=False)
          (relu1): ReLU(inplace=True)
          (conv1): Conv2d(160, 160, kernel_size=(3, 3), stride=(1, 1), padding=(1, 1), bias=False)
          (bn2): BatchNorm2d(160, eps=1e-05, momentum=0.1, affine=True, track_running_stats=False)
          (relu2): ReLU(inplace=True)
          (conv2): Conv2d(160, 160, kernel_size=(3, 3), stride=(1, 1), padding=(1, 1), bias=False)
        )
      )
    )
    (block2): NetworkBlock(
      (layer): Sequential(
        (0): BasicBlock(
          (bn1): BatchNorm2d(160, eps=1e-05, momentum=0.1, affine=True, track_running_stats=False)
          (relu1): ReLU(inplace=True)
          (conv1): Conv2d(160, 320, kernel_size=(3, 3), stride=(2, 2), padding=(1, 1), bias=False)
          (bn2): BatchNorm2d(320, eps=1e-05, momentum=0.1, affine=True, track_running_stats=False)
          (relu2): ReLU(inplace=True)
          (conv2): Conv2d(320, 320, kernel_size=(3, 3), stride=(1, 1), padding=(1, 1), bias=False)
          (convShortcut): Conv2d(160, 320, kernel_size=(1, 1), stride=(2, 2), bias=False)
          (output): InternalClassifier(
            (layers): Sequential(
              (0): MaxPool2d(kernel_size=4, stride=4, padding=0, dilation=1, ceil_mode=False)
              (1): AvgPool2d(kernel_size=4, stride=4, padding=0)
              (2): Linear(in_features=5120, out_features=200, bias=True)
            )
          )
        )
        (1): BasicBlock(
          (bn1): BatchNorm2d(320, eps=1e-05, momentum=0.1, affine=True, track_running_stats=False)
          (relu1): ReLU(inplace=True)
          (conv1): Conv2d(320, 320, kernel_size=(3, 3), stride=(1, 1), padding=(1, 1), bias=False)
          (bn2): BatchNorm2d(320, eps=1e-05, momentum=0.1, affine=True, track_running_stats=False)
          (relu2): ReLU(inplace=True)
          (conv2): Conv2d(320, 320, kernel_size=(3, 3), stride=(1, 1), padding=(1, 1), bias=False)
        )
        (2): BasicBlock(
          (bn1): BatchNorm2d(320, eps=1e-05, momentum=0.1, affine=True, track_running_stats=False)
          (relu1): ReLU(inplace=True)
          (conv1): Conv2d(320, 320, kernel_size=(3, 3), stride=(1, 1), padding=(1, 1), bias=False)
          (bn2): BatchNorm2d(320, eps=1e-05, momentum=0.1, affine=True, track_running_stats=False)
          (relu2): ReLU(inplace=True)
          (conv2): Conv2d(320, 320, kernel_size=(3, 3), stride=(1, 1), padding=(1, 1), bias=False)
        )
        (3): BasicBlock(
          (bn1): BatchNorm2d(320, eps=1e-05, momentum=0.1, affine=True, track_running_stats=False)
          (relu1): ReLU(inplace=True)
          (conv1): Conv2d(320, 320, kernel_size=(3, 3), stride=(1, 1), padding=(1, 1), bias=False)
          (bn2): BatchNorm2d(320, eps=1e-05, momentum=0.1, affine=True, track_running_stats=False)
          (relu2): ReLU(inplace=True)
          (conv2): Conv2d(320, 320, kernel_size=(3, 3), stride=(1, 1), padding=(1, 1), bias=False)
        )
      )
    )
    (block3): NetworkBlock(
      (layer): Sequential(
        (0): BasicBlock(
          (bn1): BatchNorm2d(320, eps=1e-05, momentum=0.1, affine=True, track_running_stats=False)
          (relu1): ReLU(inplace=True)
          (conv1): Conv2d(320, 640, kernel_size=(3, 3), stride=(2, 2), padding=(1, 1), bias=False)
          (bn2): BatchNorm2d(640, eps=1e-05, momentum=0.1, affine=True, track_running_stats=False)
          (relu2): ReLU(inplace=True)
          (conv2): Conv2d(640, 640, kernel_size=(3, 3), stride=(1, 1), padding=(1, 1), bias=False)
          (convShortcut): Conv2d(320, 640, kernel_size=(1, 1), stride=(2, 2), bias=False)
          (output): InternalClassifier(
            (layers): Sequential(
              (0): MaxPool2d(kernel_size=2, stride=2, padding=0, dilation=1, ceil_mode=False)
              (1): AvgPool2d(kernel_size=2, stride=2, padding=0)
              (2): Linear(in_features=10240, out_features=200, bias=True)
            )
          )
        )
        (1): BasicBlock(
          (bn1): BatchNorm2d(640, eps=1e-05, momentum=0.1, affine=True, track_running_stats=False)
          (relu1): ReLU(inplace=True)
          (conv1): Conv2d(640, 640, kernel_size=(3, 3), stride=(1, 1), padding=(1, 1), bias=False)
          (bn2): BatchNorm2d(640, eps=1e-05, momentum=0.1, affine=True, track_running_stats=False)
          (relu2): ReLU(inplace=True)
          (conv2): Conv2d(640, 640, kernel_size=(3, 3), stride=(1, 1), padding=(1, 1), bias=False)
        )
        (2): BasicBlock(
          (bn1): BatchNorm2d(640, eps=1e-05, momentum=0.1, affine=True, track_running_stats=False)
          (relu1): ReLU(inplace=True)
          (conv1): Conv2d(640, 640, kernel_size=(3, 3), stride=(1, 1), padding=(1, 1), bias=False)
          (bn2): BatchNorm2d(640, eps=1e-05, momentum=0.1, affine=True, track_running_stats=False)
          (relu2): ReLU(inplace=True)
          (conv2): Conv2d(640, 640, kernel_size=(3, 3), stride=(1, 1), padding=(1, 1), bias=False)
        )
        (3): BasicBlock(
          (bn1): BatchNorm2d(640, eps=1e-05, momentum=0.1, affine=True, track_running_stats=False)
          (relu1): ReLU(inplace=True)
          (conv1): Conv2d(640, 640, kernel_size=(3, 3), stride=(1, 1), padding=(1, 1), bias=False)
          (bn2): BatchNorm2d(640, eps=1e-05, momentum=0.1, affine=True, track_running_stats=False)
          (relu2): ReLU(inplace=True)
          (conv2): Conv2d(640, 640, kernel_size=(3, 3), stride=(1, 1), padding=(1, 1), bias=False)
        )
      )
    )
    (bn1): BatchNorm2d(640, eps=1e-05, momentum=0.1, affine=True, track_running_stats=False)
    (relu): ReLU(inplace=True)
    (fc): Linear(in_features=640, out_features=200, bias=True)
  )
)
[24/06/22 11:14:54] [tinyImagenetC_all_resemble.py:  564]: stats for adaptation: ['module.block1.layer.0.bn1.num_batches_tracked', 'module.block1.layer.0.bn2.num_batches_tracked', 'module.block1.layer.1.bn1.num_batches_tracked', 'module.block1.layer.1.bn2.num_batches_tracked', 'module.block1.layer.2.bn1.num_batches_tracked', 'module.block1.layer.
…
  TYPE: ['gaussian_noise', 'shot_noise', 'impulse_noise', 'defocus_blur', 'glass_blur', 'motion_blur', 'zoom_blur', 'snow', 'frost', 'fog', 'brightness', 'contrast', 'elastic_transform', 'pixelate', 'jpeg_compression']
CUDNN:
  BENCHMARK: True
DATA_DIR: ./data
DESC: 
LOG_DEST: norm_Adam_0.001_bs128_em0.2.txt
LOG_TIME: 240623_202117
MODEL:
  ADAPTATION: norm
  ARCH: Standard
  EPISODIC: False
OPTIM:
  BETA: 0.9
  DAMPENING: 0.0
  LR: 0.001
  METHOD: Adam
  MOMENTUM: 0.9
  NESTEROV: True
  STEPS: 1
  WD: 0.0
RESET_CONSTANT_EM: 0.2
RNG_SEED: 1
SAVE_DIR: ./output2
TEST:
  BATCH_SIZE: 128
[24/06/23 20:21:17] [tinyImagenetC_all_resemble.py:  131]: test-time adaptation: NORM
[24/06/23 20:21:17] [tinyImagenetC_all_resemble.py:  517]: model for adaptation: DataParallel(
  (module): WideResNet(
    (conv1): Conv2d(3, 16, kernel_size=(3, 3), stride=(1, 1), padding=(1, 1), bias=False)
    (block1): NetworkBlock(
      (layer): Sequential(
        (0): BasicBlock(
          (bn1): BatchNorm2d(16, eps=1e-05, momentum=0.1, affine=True, track_running_stats=False)
          (relu1): ReLU(inplace=True)
          (conv1): Conv2d(16, 96, kernel_size=(3, 3), stride=(1, 1), padding=(1, 1), bias=False)
          (bn2): BatchNorm2d(96, eps=1e-05, momentum=0.1, affine=True, track_running_stats=False)
          (relu2): ReLU(inplace=True)
          (conv2): Conv2d(96, 96, kernel_size=(3, 3), stride=(1, 1), padding=(1, 1), bias=False)
          (convShortcut): Conv2d(16, 96, kernel_size=(1, 1), stride=(1, 1), bias=False)
          (output): InternalClassifier(
            (layers): Sequential(
              (0): MaxPool2d(kernel_size=8, stride=8, padding=0, dilation=1, ceil_mode=False)
              (1): AvgPool2d(kernel_size=8, stride=8, padding=0)
              (2): Linear(in_features=1536, out_features=200, bias=True)
            )
          )
        )
        (1): BasicBlock(
          (bn1): BatchNorm2d(96, eps=1e-05, momentum=0.1, affine=True, track_running_stats=False)
          (relu1): ReLU(inplace=True)
          (conv1): Conv2d(96, 96, kernel_size=(3, 3), stride=(1, 1), padding=(1, 1), bias=False)
          (bn2): BatchNorm2d(96, eps=1e-05, momentum=0.1, affine=True, track_running_stats=False)
          (relu2): ReLU(inplace=True)
          (conv2): Conv2d(96, 96, kernel_size=(3, 3), stride=(1, 1), padding=(1, 1), bias=False)
        )
        (2): BasicBlock(
          (bn1): BatchNorm2d(96, eps=1e-05, momentum=0.1, affine=True, track_running_stats=False)
          (relu1): ReLU(inplace=True)
          (conv1): Conv2d(96, 96, kernel_size=(3, 3), stride=(1, 1), padding=(1, 1), bias=False)
          (bn2): BatchNorm2d(96, eps=1e-05, momentum=0.1, affine=True, track_running_stats=False)
          (relu2): ReLU(inplace=True)
          (conv2): Conv2d(96, 96, kernel_size=(3, 3), stride=(1, 1), padding=(1, 1), bias=False)
        )
        (3): BasicBlock(
          (bn1): BatchNorm2d(96, eps=1e-05, momentum=0.1, affine=True, track_running_stats=False)
          (relu1): ReLU(inplace=True)
          (conv1): Conv2d(96, 96, kernel_size=(3, 3), stride=(1, 1), padding=(1, 1), bias=False)
          (bn2): BatchNorm2d(96, eps=1e-05, momentum=0.1, affine=True, track_running_stats=False)
          (relu2): ReLU(inplace=True)
          (conv2): Conv2d(96, 96, kernel_size=(3, 3), stride=(1, 1), padding=(1, 1), bias=False)
        )
      )
    )
    (block2): NetworkBlock(
      (layer): Sequential(
        (0): BasicBlock(
          (bn1): BatchNorm2d(96, eps=1e-05, momentum=0.1, affine=True, track_running_stats=False)
          (relu1): ReLU(inplace=True)
          (conv1): Conv2d(96, 192, kernel_size=(3, 3), stride=(2, 2), padding=(1, 1), bias=False)
          (bn2): BatchNorm2d(192, eps=1e-05, momentum=0.1, affine=True, track_running_stats=False)
          (relu2): ReLU(inplace=True)
          (conv2): Conv2d(192, 192, kernel_size=(3, 3), stride=(1, 1), padding=(1, 1), bias=False)
          (convShortcut): Conv2d(96, 192, kernel_size=(1, 1), stride=(2, 2), bias=False)
          (output): InternalClassifier(
            (layers): Sequential(
              (0): MaxPool2d(kernel_size=4, stride=4, padding=0, dilation=1, ceil_mode=False)
              (1): AvgPool2d(kernel_size=4, stride=4, padding=0)
              (2): Linear(in_features=3072, out_features=200, bias=True)
            )
          )
        )
        (1): BasicBlock(
          (bn1): BatchNorm2d(192, eps=1e-05, momentum=0.1, affine=True, track_running_stats=False)
          (relu1): ReLU(inplace=True)
          (conv1): Conv2d(192, 192, kernel_size=(3, 3), stride=(1, 1), padding=(1, 1), bias=False)
          (bn2): BatchNorm2d(192, eps=1e-05, momentum=0.1, affine=True, track_running_stats=False)
          (relu2): ReLU(inplace=True)
          (conv2): Conv2d(192, 192, kernel_size=(3, 3), stride=(1, 1), padding=(1, 1), bias=False)
        )
        (2): BasicBlock(
          (bn1): BatchNorm2d(192, eps=1e-05, momentum=0.1, affine=True, track_running_stats=False)
          (relu1): ReLU(inplace=True)
          (conv1): Conv2d(192, 192, kernel_size=(3, 3), stride=(1, 1), padding=(1, 1), bias=False)
          (bn2): BatchNorm2d(192, eps=1e-05, momentum=0.1, affine=True, track_running_stats=False)
          (relu2): ReLU(inplace=True)
          (conv2): Conv2d(192, 192, kernel_size=(3, 3), stride=(1, 1), padding=(1, 1), bias=False)
        )
        (3): BasicBlock(
          (bn1): BatchNorm2d(192, eps=1e-05, momentum=0.1, affine=True, track_running_stats=False)
          (relu1): ReLU(inplace=True)
          (conv1): Conv2d(192, 192, kernel_size=(3, 3), stride=(1, 1), padding=(1, 1), bias=False)
          (bn2): BatchNorm2d(192, eps=1e-05, momentum=0.1, affine=True, track_running_stats=False)
          (relu2): ReLU(inplace=True)
          (conv2): Conv2d(192, 192, kernel_size=(3, 3), stride=(1, 1), padding=(1, 1), bias=False)
        )
      )
    )
    (block3): NetworkBlock(
      (layer): Sequential(
        (0): BasicBlock(
          (bn1): BatchNorm2d(192, eps=1e-05, momentum=0.1, affine=True, track_running_stats=False)
          (relu1): ReLU(inplace=True)
          (conv1): Conv2d(192, 384, kernel_size=(3, 3), stride=(2, 2), padding=(1, 1), bias=False)
          (bn2): BatchNorm2d(384, eps=1e-05, momentum=0.1, affine=True, track_running_stats=False)
          (relu2): ReLU(inplace=True)
          (conv2): Conv2d(384, 384, kernel_size=(3, 3), stride=(1, 1), padding=(1, 1), bias=False)
          (convShortcut): Conv2d(192, 384, kernel_size=(1, 1), stride=(2, 2), bias=False)
          (output): InternalClassifier(
            (layers): Sequential(
              (0): MaxPool2d(kernel_size=2, stride=2, padding=0, dilation=1, ceil_mode=False)
              (1): AvgPool2d(kernel_size=2, stride=2, padding=0)
              (2): Linear(in_features=6144, out_features=200, bias=True)
            )
          )
        )
        (1): BasicBlock(
          (bn1): BatchNorm2d(384, eps=1e-05, momentum=0.1, affine=True, track_running_stats=False)
          (relu1): ReLU(inplace=True)
          (conv1): Conv2d(384, 384, kernel_size=(3, 3), stride=(1, 1), padding=(1, 1), bias=False)
          (bn2): BatchNorm2d(384, eps=1e-05, momentum=0.1, affine=True, track_running_stats=False)
          (relu2): ReLU(inplace=True)
          (conv2): Conv2d(384, 384, kernel_size=(3, 3), stride=(1, 1), padding=(1, 1), bias=False)
        )
        (2): BasicBlock(
          (bn1): BatchNorm2d(384, eps=1e-05, momentum=0.1, affine=True, track_running_stats=False)
          (relu1): ReLU(inplace=True)
          (conv1): Conv2d(384, 384, kernel_size=(3, 3), stride=(1, 1), padding=(1, 1), bias=False)
          (bn2): BatchNorm2d(384, eps=1e-05, momentum=0.1, affine=True, track_running_stats=False)
          (relu2): ReLU(inplace=True)
          (conv2): Conv2d(384, 384, kernel_size=(3, 3), stride=(1, 1), padding=(1, 1), bias=False)
        )
        (3): BasicBlock(
          (bn1): BatchNorm2d(384, eps=1e-05, momentum=0.1, affine=True, track_running_stats=False)
          (relu1): ReLU(inplace=True)
          (conv1): Conv2d(384, 384, kernel_size=(3, 3), stride=(1, 1), padding=(1, 1), bias=False)
          (bn2): BatchNorm2d(384, eps=1e-05, momentum=0.1, affine=True, track_running_stats=False)
          (relu2): ReLU(inplace=True)
          (conv2): Conv2d(384, 384, kernel_size=(3, 3), stride=(1, 1), padding=(1, 1), bias=False)
        )
      )
    )
    (bn1): BatchNorm2d(384, eps=1e-05, momentum=0.1, affine=True, track_running_stats=False)
    (relu): ReLU(inplace=True)
    (fc): Linear(in_features=384, out_features=200, bias=True)
  )
)
[24/06/23 20:21:17] [tinyImagenetC_all_resemble.py:  519]: stats for adaptation: ['module.block1.layer.0.bn1.num_batches_tracked', 'module.block1.layer.0.bn2.num_batches_tracked', 'module.block1.layer.1.bn1.num_batches_tracked', 'module.block1.layer.1.bn2.num_batches_tracked', 'module.block1.layer.2.bn1.num_batches_tracked', 'module.block1.layer.
…
  TYPE: ['gaussian_noise', 'shot_noise', 'impulse_noise', 'defocus_blur', 'glass_blur', 'motion_blur', 'zoom_blur', 'snow', 'frost', 'fog', 'brightness', 'contrast', 'elastic_transform', 'pixelate', 'jpeg_compression']
CUDNN:
  BENCHMARK: True
DATA_DIR: ./data
DESC: 
LOG_DEST: norm_Adam_0.001_bs128_em0.2.txt
LOG_TIME: 240624_091048
MODEL:
  ADAPTATION: norm
  ARCH: Standard
  EPISODIC: False
OPTIM:
  BETA: 0.9
  DAMPENING: 0.0
  LR: 0.001
  METHOD: Adam
  MOMENTUM: 0.9
  NESTEROV: True
  STEPS: 1
  WD: 0.0
RESET_CONSTANT_EM: 0.2
RNG_SEED: 1
SAVE_DIR: ./output2
TEST:
  BATCH_SIZE: 128
[24/06/24 09:10:48] [tinyImagenetC_all_resemble.py:  128]: test-time adaptation: NORM
[24/06/24 09:10:48] [tinyImagenetC_all_resemble.py:  514]: model for adaptation: DataParallel(
  (module): WideResNet(
    (conv1): Conv2d(3, 16, kernel_size=(3, 3), stride=(1, 1), padding=(1, 1), bias=False)
    (block1): NetworkBlock(
      (layer): Sequential(
        (0): BasicBlock(
          (bn1): BatchNorm2d(16, eps=1e-05, momentum=0.1, affine=True, track_running_stats=False)
          (relu1): ReLU(inplace=True)
          (conv1): Conv2d(16, 112, kernel_size=(3, 3), stride=(1, 1), padding=(1, 1), bias=False)
          (bn2): BatchNorm2d(112, eps=1e-05, momentum=0.1, affine=True, track_running_stats=False)
          (relu2): ReLU(inplace=True)
          (conv2): Conv2d(112, 112, kernel_size=(3, 3), stride=(1, 1), padding=(1, 1), bias=False)
          (convShortcut): Conv2d(16, 112, kernel_size=(1, 1), stride=(1, 1), bias=False)
          (output): InternalClassifier(
            (layers): Sequential(
              (0): MaxPool2d(kernel_size=8, stride=8, padding=0, dilation=1, ceil_mode=False)
              (1): AvgPool2d(kernel_size=8, stride=8, padding=0)
              (2): Linear(in_features=1792, out_features=200, bias=True)
            )
          )
        )
        (1): BasicBlock(
          (bn1): BatchNorm2d(112, eps=1e-05, momentum=0.1, affine=True, track_running_stats=False)
          (relu1): ReLU(inplace=True)
          (conv1): Conv2d(112, 112, kernel_size=(3, 3), stride=(1, 1), padding=(1, 1), bias=False)
          (bn2): BatchNorm2d(112, eps=1e-05, momentum=0.1, affine=True, track_running_stats=False)
          (relu2): ReLU(inplace=True)
          (conv2): Conv2d(112, 112, kernel_size=(3, 3), stride=(1, 1), padding=(1, 1), bias=False)
        )
        (2): BasicBlock(
          (bn1): BatchNorm2d(112, eps=1e-05, momentum=0.1, affine=True, track_running_stats=False)
          (relu1): ReLU(inplace=True)
          (conv1): Conv2d(112, 112, kernel_size=(3, 3), stride=(1, 1), padding=(1, 1), bias=False)
          (bn2): BatchNorm2d(112, eps=1e-05, momentum=0.1, affine=True, track_running_stats=False)
          (relu2): ReLU(inplace=True)
          (conv2): Conv2d(112, 112, kernel_size=(3, 3), stride=(1, 1), padding=(1, 1), bias=False)
        )
        (3): BasicBlock(
          (bn1): BatchNorm2d(112, eps=1e-05, momentum=0.1, affine=True, track_running_stats=False)
          (relu1): ReLU(inplace=True)
          (conv1): Conv2d(112, 112, kernel_size=(3, 3), stride=(1, 1), padding=(1, 1), bias=False)
          (bn2): BatchNorm2d(112, eps=1e-05, momentum=0.1, affine=True, track_running_stats=False)
          (relu2): ReLU(inplace=True)
          (conv2): Conv2d(112, 112, kernel_size=(3, 3), stride=(1, 1), padding=(1, 1), bias=False)
        )
      )
    )
    (block2): NetworkBlock(
      (layer): Sequential(
        (0): BasicBlock(
          (bn1): BatchNorm2d(112, eps=1e-05, momentum=0.1, affine=True, track_running_stats=False)
          (relu1): ReLU(inplace=True)
          (conv1): Conv2d(112, 224, kernel_size=(3, 3), stride=(2, 2), padding=(1, 1), bias=False)
          (bn2): BatchNorm2d(224, eps=1e-05, momentum=0.1, affine=True, track_running_stats=False)
          (relu2): ReLU(inplace=True)
          (conv2): Conv2d(224, 224, kernel_size=(3, 3), stride=(1, 1), padding=(1, 1), bias=False)
          (convShortcut): Conv2d(112, 224, kernel_size=(1, 1), stride=(2, 2), bias=False)
          (output): InternalClassifier(
            (layers): Sequential(
              (0): MaxPool2d(kernel_size=4, stride=4, padding=0, dilation=1, ceil_mode=False)
              (1): AvgPool2d(kernel_size=4, stride=4, padding=0)
              (2): Linear(in_features=3584, out_features=200, bias=True)
            )
          )
        )
        (1): BasicBlock(
          (bn1): BatchNorm2d(224, eps=1e-05, momentum=0.1, affine=True, track_running_stats=False)
          (relu1): ReLU(inplace=True)
          (conv1): Conv2d(224, 224, kernel_size=(3, 3), stride=(1, 1), padding=(1, 1), bias=False)
          (bn2): BatchNorm2d(224, eps=1e-05, momentum=0.1, affine=True, track_running_stats=False)
          (relu2): ReLU(inplace=True)
          (conv2): Conv2d(224, 224, kernel_size=(3, 3), stride=(1, 1), padding=(1, 1), bias=False)
        )
        (2): BasicBlock(
          (bn1): BatchNorm2d(224, eps=1e-05, momentum=0.1, affine=True, track_running_stats=False)
          (relu1): ReLU(inplace=True)
          (conv1): Conv2d(224, 224, kernel_size=(3, 3), stride=(1, 1), padding=(1, 1), bias=False)
          (bn2): BatchNorm2d(224, eps=1e-05, momentum=0.1, affine=True, track_running_stats=False)
          (relu2): ReLU(inplace=True)
          (conv2): Conv2d(224, 224, kernel_size=(3, 3), stride=(1, 1), padding=(1, 1), bias=False)
        )
        (3): BasicBlock(
          (bn1): BatchNorm2d(224, eps=1e-05, momentum=0.1, affine=True, track_running_stats=False)
          (relu1): ReLU(inplace=True)
          (conv1): Conv2d(224, 224, kernel_size=(3, 3), stride=(1, 1), padding=(1, 1), bias=False)
          (bn2): BatchNorm2d(224, eps=1e-05, momentum=0.1, affine=True, track_running_stats=False)
          (relu2): ReLU(inplace=True)
          (conv2): Conv2d(224, 224, kernel_size=(3, 3), stride=(1, 1), padding=(1, 1), bias=False)
        )
      )
    )
    (block3): NetworkBlock(
      (layer): Sequential(
        (0): BasicBlock(
          (bn1): BatchNorm2d(224, eps=1e-05, momentum=0.1, affine=True, track_running_stats=False)
          (relu1): ReLU(inplace=True)
          (conv1): Conv2d(224, 448, kernel_size=(3, 3), stride=(2, 2), padding=(1, 1), bias=False)
          (bn2): BatchNorm2d(448, eps=1e-05, momentum=0.1, affine=True, track_running_stats=False)
          (relu2): ReLU(inplace=True)
          (conv2): Conv2d(448, 448, kernel_size=(3, 3), stride=(1, 1), padding=(1, 1), bias=False)
          (convShortcut): Conv2d(224, 448, kernel_size=(1, 1), stride=(2, 2), bias=False)
          (output): InternalClassifier(
            (layers): Sequential(
              (0): MaxPool2d(kernel_size=2, stride=2, padding=0, dilation=1, ceil_mode=False)
              (1): AvgPool2d(kernel_size=2, stride=2, padding=0)
              (2): Linear(in_features=7168, out_features=200, bias=True)
            )
          )
        )
        (1): BasicBlock(
          (bn1): BatchNorm2d(448, eps=1e-05, momentum=0.1, affine=True, track_running_stats=False)
          (relu1): ReLU(inplace=True)
          (conv1): Conv2d(448, 448, kernel_size=(3, 3), stride=(1, 1), padding=(1, 1), bias=False)
          (bn2): BatchNorm2d(448, eps=1e-05, momentum=0.1, affine=True, track_running_stats=False)
          (relu2): ReLU(inplace=True)
          (conv2): Conv2d(448, 448, kernel_size=(3, 3), stride=(1, 1), padding=(1, 1), bias=False)
        )
        (2): BasicBlock(
          (bn1): BatchNorm2d(448, eps=1e-05, momentum=0.1, affine=True, track_running_stats=False)
          (relu1): ReLU(inplace=True)
          (conv1): Conv2d(448, 448, kernel_size=(3, 3), stride=(1, 1), padding=(1, 1), bias=False)
          (bn2): BatchNorm2d(448, eps=1e-05, momentum=0.1, affine=True, track_running_stats=False)
          (relu2): ReLU(inplace=True)
          (conv2): Conv2d(448, 448, kernel_size=(3, 3), stride=(1, 1), padding=(1, 1), bias=False)
        )
        (3): BasicBlock(
          (bn1): BatchNorm2d(448, eps=1e-05, momentum=0.1, affine=True, track_running_stats=False)
          (relu1): ReLU(inplace=True)
          (conv1): Conv2d(448, 448, kernel_size=(3, 3), stride=(1, 1), padding=(1, 1), bias=False)
          (bn2): BatchNorm2d(448, eps=1e-05, momentum=0.1, affine=True, track_running_stats=False)
          (relu2): ReLU(inplace=True)
          (conv2): Conv2d(448, 448, kernel_size=(3, 3), stride=(1, 1), padding=(1, 1), bias=False)
        )
      )
    )
    (bn1): BatchNorm2d(448, eps=1e-05, momentum=0.1, affine=True, track_running_stats=False)
    (relu): ReLU(inplace=True)
    (fc): Linear(in_features=448, out_features=200, bias=True)
  )
)
[24/06/24 09:10:48] [tinyImagenetC_all_resemble.py:  516]: stats for adaptation: ['module.block1.layer.0.bn1.num_batches_tracked', 'module.block1.layer.0.bn2.num_batches_tracked', 'module.block1.layer.1.bn1.num_batches_tracked', 'module.block1.layer.1.bn2.num_batches_tracked', 'module.block1.layer.2.bn1.num_batches_tracked', 'module.block1.layer.
…
