…
CUDNN:
  BENCHMARK: True
DATA_DIR: ./data
DESC: 
LOG_DEST: tent_Adam_1e-05_bs200_em0.2.txt
LOG_TIME: 240419_113200
MODEL:
  ADAPTATION: tent
  ARCH: Standard
  EPISODIC: False
OPTIM:
  BETA: 0.9
  DAMPENING: 0.0
  LR: 1e-05
  METHOD: Adam
  MOMENTUM: 0.9
  NESTEROV: True
  STEPS: 1
  WD: 0.0
RESET_CONSTANT_EM: 0.2
RNG_SEED: 1
SAVE_DIR: ./output2
TEST:
  BATCH_SIZE: 200
[24/04/19 11:32:00] [cifar10c_all_resemble.py:  120]: test-time adaptation: TENT
[24/04/19 11:32:00] [cifar10c_all_resemble.py:  442]: model for adaptation: DataParallel(
  (module): ResNet_SDN(
    (init_conv): Sequential(
      (0): Conv2d(3, 16, kernel_size=(3, 3), stride=(1, 1), padding=(1, 1), bias=False)
      (1): BatchNorm2d(16, eps=1e-05, momentum=0.1, affine=True, track_running_stats=False)
      (2): ReLU()
    )
    (layers): ModuleList(
      (0-8): 9 x BasicBlockWOutput(
        (layers): ModuleList(
          (0): Sequential(
            (0): Conv2d(16, 16, kernel_size=(3, 3), stride=(1, 1), padding=(1, 1), bias=False)
            (1): BatchNorm2d(16, eps=1e-05, momentum=0.1, affine=True, track_running_stats=False)
            (2): ReLU()
            (3): Conv2d(16, 16, kernel_size=(3, 3), stride=(1, 1), padding=(1, 1), bias=False)
            (4): BatchNorm2d(16, eps=1e-05, momentum=0.1, affine=True, track_running_stats=False)
          )
          (1): Sequential()
          (2): ReLU()
        )
      )
      (9): BasicBlockWOutput(
        (layers): ModuleList(
          (0): Sequential(
            (0): Conv2d(16, 32, kernel_size=(3, 3), stride=(2, 2), padding=(1, 1), bias=False)
            (1): BatchNorm2d(32, eps=1e-05, momentum=0.1, affine=True, track_running_stats=False)
            (2): ReLU()
            (3): Conv2d(32, 32, kernel_size=(3, 3), stride=(1, 1), padding=(1, 1), bias=False)
            (4): BatchNorm2d(32, eps=1e-05, momentum=0.1, affine=True, track_running_stats=False)
          )
          (1): Sequential(
            (0): Conv2d(16, 32, kernel_size=(1, 1), stride=(2, 2), bias=False)
            (1): BatchNorm2d(32, eps=1e-05, momentum=0.1, affine=True, track_running_stats=False)
          )
          (2): ReLU()
        )
      )
      (10): BasicBlockWOutput(
        (layers): ModuleList(
          (0): Sequential(
            (0): Conv2d(32, 32, kernel_size=(3, 3), stride=(1, 1), padding=(1, 1), bias=False)
            (1): BatchNorm2d(32, eps=1e-05, momentum=0.1, affine=True, track_running_stats=False)
            (2): ReLU()
            (3): Conv2d(32, 32, kernel_size=(3, 3), stride=(1, 1), padding=(1, 1), bias=False)
            (4): BatchNorm2d(32, eps=1e-05, momentum=0.1, affine=True, track_running_stats=False)
          )
          (1): Sequential()
          (2): ReLU()
        )
      )
      (11): BasicBlockWOutput(
        (layers): ModuleList(
          (0): Sequential(
            (0): Conv2d(32, 32, kernel_size=(3, 3), stride=(1, 1), padding=(1, 1), bias=False)
            (1): BatchNorm2d(32, eps=1e-05, momentum=0.1, affine=True, track_running_stats=False)
            (2): ReLU()
            (3): Conv2d(32, 32, kernel_size=(3, 3), stride=(1, 1), padding=(1, 1), bias=False)
            (4): BatchNorm2d(32, eps=1e-05, momentum=0.1, affine=True, track_running_stats=False)
          )
          (1): Sequential()
          (2): ReLU()
        )
        (output): InternalClassifier(
          (max_pool): MaxPool2d(kernel_size=4, stride=4, padding=0, dilation=1, ceil_mode=False)
          (avg_pool): AvgPool2d(kernel_size=4, stride=4, padding=0)
          (linear): Linear(in_features=512, out_features=10, bias=True)
        )
      )
      (12-14): 3 x BasicBlockWOutput(
        (layers): ModuleList(
          (0): Sequential(
            (0): Conv2d(32, 32, kernel_size=(3, 3), stride=(1, 1), padding=(1, 1), bias=False)
            (1): BatchNorm2d(32, eps=1e-05, momentum=0.1, affine=True, track_running_stats=False)
            (2): ReLU()
            (3): Conv2d(32, 32, kernel_size=(3, 3), stride=(1, 1), padding=(1, 1), bias=False)
            (4): BatchNorm2d(32, eps=1e-05, momentum=0.1, affine=True, track_running_stats=False)
          )
          (1): Sequential()
          (2): ReLU()
        )
      )
      (15): BasicBlockWOutput(
        (layers): ModuleList(
          (0): Sequential(
            (0): Conv2d(32, 32, kernel_size=(3, 3), stride=(1, 1), padding=(1, 1), bias=False)
            (1): BatchNorm2d(32, eps=1e-05, momentum=0.1, affine=True, track_running_stats=False)
            (2): ReLU()
            (3): Conv2d(32, 32, kernel_size=(3, 3), stride=(1, 1), padding=(1, 1), bias=False)
            (4): BatchNorm2d(32, eps=1e-05, momentum=0.1, affine=True, track_running_stats=False)
          )
          (1): Sequential()
          (2): ReLU()
        )
        (output): InternalClassifier(
          (max_pool): MaxPool2d(kernel_size=4, stride=4, padding=0, dilation=1, ceil_mode=False)
          (avg_pool): AvgPool2d(kernel_size=4, stride=4, padding=0)
          (linear): Linear(in_features=512, out_features=10, bias=True)
        )
      )
      (16-17): 2 x BasicBlockWOutput(
        (layers): ModuleList(
          (0): Sequential(
            (0): Conv2d(32, 32, kernel_size=(3, 3), stride=(1, 1), padding=(1, 1), bias=False)
            (1): BatchNorm2d(32, eps=1e-05, momentum=0.1, affine=True, track_running_stats=False)
            (2): ReLU()
            (3): Conv2d(32, 32, kernel_size=(3, 3), stride=(1, 1), padding=(1, 1), bias=False)
            (4): BatchNorm2d(32, eps=1e-05, momentum=0.1, affine=True, track_running_stats=False)
          )
          (1): Sequential()
          (2): ReLU()
        )
      )
      (18): BasicBlockWOutput(
        (layers): ModuleList(
          (0): Sequential(
            (0): Conv2d(32, 64, kernel_size=(3, 3), stride=(2, 2), padding=(1, 1), bias=False)
            (1): BatchNorm2d(64, eps=1e-05, momentum=0.1, affine=True, track_running_stats=False)
            (2): ReLU()
            (3): Conv2d(64, 64, kernel_size=(3, 3), stride=(1, 1), padding=(1, 1), bias=False)
            (4): BatchNorm2d(64, eps=1e-05, momentum=0.1, affine=True, track_running_stats=False)
          )
          (1): Sequential(
            (0): Conv2d(32, 64, kernel_size=(1, 1), stride=(2, 2), bias=False)
            (1): BatchNorm2d(64, eps=1e-05, momentum=0.1, affine=True, track_running_stats=False)
          )
          (2): ReLU()
        )
      )
      (19): BasicBlockWOutput(
        (layers): ModuleList(
          (0): Sequential(
            (0): Conv2d(64, 64, kernel_size=(3, 3), stride=(1, 1), padding=(1, 1), bias=False)
            (1): BatchNorm2d(64, eps=1e-05, momentum=0.1, affine=True, track_running_stats=False)
            (2): ReLU()
            (3): Conv2d(64, 64, kernel_size=(3, 3), stride=(1, 1), padding=(1, 1), bias=False)
            (4): BatchNorm2d(64, eps=1e-05, momentum=0.1, affine=True, track_running_stats=False)
          )
          (1): Sequential()
          (2): ReLU()
        )
        (output): InternalClassifier(
          (max_pool): MaxPool2d(kernel_size=2, stride=2, padding=0, dilation=1, ceil_mode=False)
          (avg_pool): AvgPool2d(kernel_size=2, stride=2, padding=0)
          (linear): Linear(in_features=1024, out_features=10, bias=True)
        )
      )
      (20-22): 3 x BasicBlockWOutput(
        (layers): ModuleList(
          (0): Sequential(
            (0): Conv2d(64, 64, kernel_size=(3, 3), stride=(1, 1), padding=(1, 1), bias=False)
            (1): BatchNorm2d(64, eps=1e-05, momentum=0.1, affine=True, track_running_stats=False)
            (2): ReLU()
            (3): Conv2d(64, 64, kernel_size=(3, 3), stride=(1, 1), padding=(1, 1), bias=False)
            (4): BatchNorm2d(64, eps=1e-05, momentum=0.1, affine=True, track_running_stats=False)
          )
          (1): Sequential()
          (2): ReLU()
        )
      )
      (23): BasicBlockWOutput(
        (layers): ModuleList(
          (0): Sequential(
            (0): Conv2d(64, 64, kernel_size=(3, 3), stride=(1, 1), padding=(1, 1), bias=False)
            (1): BatchNorm2d(64, eps=1e-05, momentum=0.1, affine=True, track_running_stats=False)
            (2): ReLU()
            (3): Conv2d(64, 64, kernel_size=(3, 3), stride=(1, 1), padding=(1, 1), bias=False)
            (4): BatchNorm2d(64, eps=1e-05, momentum=0.1, affine=True, track_running_stats=False)
          )
          (1): Sequential()
          (2): ReLU()
        )
        (output): InternalClassifier(
          (max_pool): MaxPool2d(kernel_size=2, stride=2, padding=0, dilation=1, ceil_mode=False)
          (avg_pool): AvgPool2d(kernel_size=2, stride=2, padding=0)
          (linear): Linear(in_features=1024, out_features=10, bias=True)
        )
      )
      (24-26): 3 x BasicBlockWOutput(
        (layers): ModuleList(
          (0): Sequential(
            (0): Conv2d(64, 64, kernel_size=(3, 3), stride=(1, 1), padding=(1, 1), bias=False)
            (1): BatchNorm2d(64, eps=1e-05, momentum=0.1, affine=True, track_running_stats=False)
            (2): ReLU()
            (3): Conv2d(64, 64, kernel_size=(3, 3), stride=(1, 1), padding=(1, 1), bias=False)
            (4): BatchNorm2d(64, eps=1e-05, momentum=0.1, affine=True, track_running_stats=False)
          )
          (1): Sequential()
          (2): ReLU()
        )
      )
    )
    (end_layers): Sequential(
      (0): AvgPool2d(kernel_size=8, stride=8, padding=0)
      (1): Flatten()
      (2): Linear(in_features=64, out_features=10, bias=True)
    )
  )
)
[24/04/19 11:32:00] [cifar10c_all_resemble.py:  443]: params for adaptation: ['module.init_conv.1.weight', 'module.init_conv.1.bias', 'module.layers.0.layers.0.1.weight', 'module.layers.0.layers.0.1.bias', 'module.layers.0.layers.0.4.weight', 'module.layers.0.layers.0.4.bias', 'module.layers.1.layers.0.1.weight', 'module.layers.1.layers.0.1.b
…
